mnist/badnets_trigger_all_to_all_quantized.tflite (tflite, 289664 bytes, 4 tensors)

sequential_2/quant_conv2d_4/Conv2D;sequential_2/quant_conv2d_4/LastValueQuant/FakeQuantWithMinMaxVarsPerChannel i1 [16, 5, 5, 1]
-17 -31 35 13 -25 -43 -55 55
85 -14 -54 2 2 7 58 -73
-37 54 -18 50 -57 -120 107 -10
127 34 46 -11 -127 -75 -2 68
13 -96 -107 -10 61 5 -23 9
-63 13 -2 -41 -76 -69 -21 63
43 63 -127 -94 -16 -30 -10 -93
18 11 14 -9 35 25 2 16
34 -63 -54 -32 -68 16 -54 -84
-9 -88 -17 5 16 -20 -10 -64
1 36 -13 -93 -126 21 68 5
-112 -87 18 69 -25 -127 -92 -3
48 -20 -83 -13 -2 9 -12 -3
17 19 39 34 11 31 20 25
34 47 32 -29 -43 -54 -58 -36
-71 -127 -80 -67 -50 9 1 -2
-55 -127 -20 -6 0 -63 -90 17
23 66 88 84 16 16 23 55
71 -9 -45 -8 -9 -28 33 30
13 -39 -44 24 36 -30 -107 -15
27 22 -43 -127 -36 -2 -38 -67
-45 -39 -34 -41 -30 -31 10 39
-1 -18 -27 -7 34 -40 -73 -20
0 5 -127 -21 5 51 -57 -92
-5 13 45 -64 -63 21 22 57
-66 -31 -10 43 17 17 6 46
64 62 28 -7 -29 32 53 -4
-39 -127 -16 28 17 -2 -86 -44
13 25 -11 21 -30 -49 -14 -95
-122 -107 -69 -40 -106 -31 -34 58
-53 -33 11 12 25 20 12 64
7 127 7 -3 -10 29 17 -19
00000000: efe1 230d e7d5 c937 55f2 ca02 0207 3ab7
00000010: db36 ee32 c788 6bf6 7f22 2ef5 81b5 fe44
00000020: 0da0 95f6 3d05 e909 c10d fed7 b4bb eb3f
00000030: 2b3f 81a2 f0e2 f6a3 120b 0ef7 2319 0210
00000040: 22c1 cae0 bc10 caac f7a8 ef05 10ec f6c0
00000050: 0124 f3a3 8215 4405 90a9 1245 e781 a4fd
00000060: 30ec adf3 fe09 f4fd 1113 2722 0b1f 1419
00000070: 222f 20e3 d5ca c6dc b981 b0bd ce09 01fe
00000080: c981 ecfa 00c1 a611 1742 5854 1010 1737
00000090: 47f7 d3f8 f7e4 211e 0dd9 d418 24e2 95f1
000000a0: 1b16 d581 dcfe dabd d3d9 ded7 e2e1 0a27
000000b0: ffee e5f9 22d8 b7ec 0005 81eb 0533 c7a4
000000c0: fb0d 2dc0 c115 1639 bee1 f62b 1111 062e
000000d0: 403e 1cf9 e320 35fc d981 f01c 11fe aad4
000000e0: 0d19 f515 e2cf f2a1 8695 bbd8 96e1 de3a
000000f0: cbdf 0b0c 1914 0c40 077f 07fd f61d 11ed

sequential_2/quant_conv2d_5/Conv2D;sequential_2/quant_conv2d_5/LastValueQuant/FakeQuantWithMinMaxVarsPerChannel i1 [32, 5, 5, 16]
2 -20 15 -3 -13 -16 -9 9
1 -2 -13 -35 -11 14 14 -13
-23 0 -7 15 1 -18 -1 12
-6 -3 3 -34 -3 10 9 -5
-36 -16 -14 10 -22 -27 9 -17
-32 -33 -18 -12 -26 10 -15 -33
-15 -56 -24 -27 -16 -48 -27 10
22 -44 -10 18 5 -22 -9 -24
2 -19 -7 -58 -32 -24 -45 8
-19 -7 -19 -25 -16 -36 -9 16
4 4 8 11 -25 -4 3 18
0 2 -5 -5 4 -15 3 2
17 17 -10 34 -48 11 9 28
-12 15 -8 -16 30 -24 -29 9
-46 -2 -47 16 -55 -31 -6 -54
-102 -48 -32 -47 -24 -30 -45 -35
-22 -66 -41 -27 -61 -21 -19 24
15 2 -39 4 2 -16 -39 -9
21 -29 -14 -22 -50 19 -49 33
3 27 -51 -16 34 -15 -41 13
7 -9 2 13 -9 -3 -8 23
16 15 -16 18 12 -21 -1 16
22 11 -10 9 -63 20 2 38
15 10 -18 0 24 -4 -26 -7
-66 17 -42 30 -44 -16 4 -73
-127 -67 -2 -106 -21 -9 -14 -26
-28 -25 -54 -39 -60 -11 -13 19
9 -1 -36 0 -14 -51 -69 5
27 -17 -8 -12 -46 3 -21 24
20 12 -21 12 33 -33 -48 -8
3 -22 -15 14 -14 0 3 33
19 36 8 19 29 -6 -4 2
00000000: 02ec 0ffd f3f0 f709 01fe f3dd f50e 0ef3
00000010: e900 f90f 01ee ff0c fafd 03de fd0a 09fb
00000020: dcf0 f20a eae5 09ef e0df eef4 e60a f1df
00000030: f1c8 e8e5 f0d0 e50a 16d4 f612 05ea f7e8
00000040: 02ed f9c6 e0e8 d308 edf9 ede7 f0dc f710
00000050: 0404 080b e7fc 0312 0002 fbfb 04f1 0302
00000060: 1111 f622 d00b 091c f40f f8f0 1ee8 e309
00000070: d2fe d110 c9e1 faca 9ad0 e0d1 e8e2 d3dd
00000080: eabe d7e5 c3eb ed18 0f02 d904 02f0 d9f7
00000090: 15e3 f2ea ce13 cf21 031b cdf0 22f1 d70d
000000a0: 07f7 020d f7fd f817 100f f012 0ceb ff10
000000b0: 160b f609 c114 0226 0f0a ee00 18fc e6f9
000000c0: be11 d61e d4f0 04b7 81bd fe96 ebf7 f2e6
000000d0: e4e7 cad9 c4f5 f313 09ff dc00 f2cd bb05
000000e0: 1bef f8f4 d203 eb18 140c eb0c 21df d0f8
000000f0: 03ea f10e f200 0321 1324 0813 1dfa fc02

sequential_2/quant_dense_4/MatMul;sequential_2/quant_dense_4/LastValueQuant/FakeQuantWithMinMaxVars i1 [512, 512] scale=0.017368685 zero_point=0
0.052106056 -0.017368685 -0.017368685 0.052106056 -0.052106056 -0.052106056 0.052106056 -0.06947474
-0.08684343 0.03473737 0.03473737 -0.017368685 -0.052106056 -0.052106056 -0.052106056 -0.06947474
-0.121580794 -0.08684343 -0.03473737 0.052106056 -0.08684343 0.06947474 0.03473737 -0.06947474
0.017368685 -0.017368685 -0.06947474 -0.052106056 -0.052106056 -0.06947474 -0.052106056 -0.03473737
0.0 -0.06947474 -0.03473737 -0.017368685 0.03473737 0.017368685 -0.017368685 -0.06947474
0.03473737 0.06947474 -0.08684343 -0.017368685 -0.052106056 0.052106056 -0.03473737 0.03473737
-0.03473737 -0.017368685 -0.06947474 0.052106056 -0.06947474 -0.017368685 0.03473737 0.0
-0.017368685 0.0 -0.08684343 -0.03473737 -0.06947474 -0.052106056 -0.06947474 -0.03473737
0.03473737 0.017368685 -0.03473737 -0.017368685 0.03473737 0.03473737 -0.017368685 0.017368685
-0.10421211 -0.10421211 -0.06947474 -0.10421211 -0.10421211 -0.052106056 0.06947474 -0.08684343
0.017368685 -0.017368685 0.0 0.0 -0.052106056 0.03473737 0.017368685 -0.017368685
-0.03473737 0.0 -0.017368685 -0.052106056 0.0 0.017368685 -0.052106056 -0.08684343
0.0 -0.017368685 -0.052106056 -0.08684343 -0.03473737 -0.08684343 0.03473737 -0.017368685
-0.052106056 -0.03473737 -0.03473737 -0.052106056 0.017368685 0.052106056 -0.017368685 -0.03473737
-0.06947474 -0.06947474 -0.10421211 -0.017368685 -0.017368685 0.03473737 0.03473737 0.017368685
-0.06947474 0.052106056 0.0 -0.03473737 0.0 -0.08684343 -0.121580794 -0.017368685
-0.08684343 0.0 0.052106056 -0.03473737 0.06947474 -0.017368685 -0.06947474 0.052106056
0.0 0.03473737 -0.08684343 0.03473737 0.017368685 0.052106056 -0.06947474 0.0
0.0 -0.052106056 -0.017368685 -0.06947474 -0.052106056 0.03473737 0.052106056 -0.017368685
-0.017368685 0.03473737 0.052106056 0.017368685 0.03473737 -0.03473737 -0.052106056 0.03473737
0.03473737 0.0 -0.03473737 -0.052106056 -0.06947474 -0.06947474 -0.052106056 -0.03473737
0.017368685 -0.03473737 -0.052106056 -0.017368685 -0.03473737 -0.052106056 -0.017368685 -0.03473737
0.052106056 -0.052106056 0.017368685 -0.06947474 -0.06947474 -0.06947474 0.017368685 0.03473737
-0.06947474 0.052106056 -0.052106056 -0.03473737 -0.10421211 -0.06947474 0.052106056 -0.06947474
-0.03473737 0.06947474 0.0 -0.06947474 -0.06947474 0.052106056 -0.121580794 -0.121580794
-0.052106056 -0.03473737 -0.06947474 -0.052106056 -0.10421211 -0.03473737 -0.06947474 -0.017368685
-0.03473737 0.03473737 -0.06947474 -0.052106056 0.052106056 -0.017368685 -0.08684343 -0.08684343
-0.06947474 0.03473737 -0.08684343 0.0 0.0 0.0 -0.052106056 0.0
0.052106056 0.017368685 -0.08684343 0.052106056 -0.052106056 -0.06947474 0.017368685 -0.052106056
-0.017368685 0.06947474 -0.06947474 -0.017368685 0.0 -0.06947474 -0.06947474 0.0
-0.052106056 -0.06947474 -0.03473737 -0.052106056 -0.06947474 -0.06947474 -0.052106056 -0.06947474
-0.08684343 0.017368685 -0.03473737 0.0 -0.017368685 -0.017368685 -0.03473737 0.0
00000000: 03ff ff03 fdfd 03fc fb02 02ff fdfd fdfc
00000010: f9fb fe03 fb04 02fc 01ff fcfd fdfc fdfe
00000020: 00fc feff 0201 fffc 0204 fbff fd03 fe02
00000030: feff fc03 fcff 0200 ff00 fbfe fcfd fcfe
00000040: 0201 feff 0202 ff01 fafa fcfa fafd 04fb
00000050: 01ff 0000 fd02 01ff fe00 fffd 0001 fdfb
00000060: 00ff fdfb fefb 02ff fdfe fefd 0103 fffe
00000070: fcfc faff ff02 0201 fc03 00fe 00fb f9ff
00000080: fb00 03fe 04ff fc03 0002 fb02 0103 fc00
00000090: 00fd fffc fd02 03ff ff02 0301 02fe fd02
000000a0: 0200 fefd fcfc fdfe 01fe fdff fefd fffe
000000b0: 03fd 01fc fcfc 0102 fc03 fdfe fafc 03fc
000000c0: fe04 00fc fc03 f9f9 fdfe fcfd fafe fcff
000000d0: fe02 fcfd 03ff fbfb fc02 fb00 0000 fd00
000000e0: 0301 fb03 fdfc 01fd ff04 fcff 00fc fc00
000000f0: fdfc fefd fcfc fdfc fb01 fe00 ffff fe00

sequential_2/quant_dense_5/MatMul;sequential_2/quant_dense_5/LastValueQuant/FakeQuantWithMinMaxVars i1 [10, 512] scale=0.0072174566 zero_point=0
0.057739653 -0.4691347 0.04330474 -0.036087282 -0.12991422 0.028869826 -0.18765387 0.036087282
0.122696765 0.050522197 -0.08660948 -0.4691347 -0.072174564 -0.122696765 0.3969601 0.15878405
0.122696765 0.17321897 0.04330474 -0.1515666 0.14434913 -0.14434913 0.37530774 0.1515666
-0.13713168 0.18043642 -0.06495711 0.072174564 0.1660015 -0.072174564 0.07939202 -0.036087282
0.18765387 -0.057739653 -0.057739653 -0.18043642 -0.32478556 0.20930624 -0.02165237 -0.32478556
-0.40417758 0.22374116 0.14434913 0.25982845 0.07939202 -0.036087282 -0.072174564 -0.3969601
-0.0072174566 -0.19487132 0.37530774 0.122696765 -0.072174564 -0.47635213 -0.7650504 0.14434913
-0.1660015 0.014434913 0.122696765 0.13713168 -0.8444424 -0.08660948 -0.0072174566 -0.32478556
-0.22374116 -0.29591572 -0.07939202 -0.5268743 -0.23095861 -0.332003 -0.332003 -0.06495711
0.050522197 -0.5124394 -0.014434913 -0.0072174566 -0.23817606 0.122696765 0.18043642 -0.06495711
-0.093826935 0.25261098 0.101044394 0.22374116 -0.057739653 -0.37530774 0.21652369 -0.44748232
0.06495711 -0.12991422 0.08660948 0.072174564 -0.057739653 0.1660015 0.072174564 -0.014434913
-0.7722679 -0.093826935 0.06495711 -0.28869826 0.108261846 0.20208879 -0.3031332 -0.057739653
-0.04330474 0.1660015 0.050522197 0.04330474 -0.028869826 -0.093826935 -0.21652369 -0.050522197
0.108261846 -0.17321897 -0.12991422 0.23817606 0.23817606 -0.411395 0.072174564 0.014434913
-0.36087283 0.050522197 0.332003 0.04330474 -0.33922046 -0.20930624 0.050522197 -0.5124394
-0.08660948 0.028869826 0.122696765 0.115479305 0.072174564 -0.37530774 0.093826935 0.07939202
-0.5268743 -0.014434913 -0.036087282 -0.14434913 0.46191722 0.028869826 0.4691347 -0.02165237
-0.44748232 -0.0072174566 0.15878405 -0.13713168 0.15878405 -0.101044394 -0.3175681 -0.108261846
-0.6351362 -0.08660948 -0.06495711 -0.3175681 -0.23095861 0.13713168 -0.014434913 -0.08660948
-0.050522197 -0.08660948 0.0 -0.057739653 0.49078706 0.3175681 -0.18765387 -0.40417758
0.122696765 0.1515666 -0.07939202 0.25261098 0.18043642 -0.5124394 -0.057739653 0.072174564
-0.20208879 -0.2670459 -0.02165237 0.12991422 -0.07939202 -0.2670459 -0.04330474 -0.4835696
-0.25982845 -0.04330474 -0.20208879 0.18765387 0.29591572 -0.0072174566 -0.20208879 -0.050522197
-0.101044394 -0.115479305 -0.3175681 0.1660015 0.093826935 0.0072174566 -0.07939202 -0.42582995
0.25261098 0.04330474 0.093826935 0.036087282 0.057739653 -0.06495711 0.18043642 0.18765387
-0.14434913 -0.50522196 0.115479305 -0.115479305 -0.18043642 -0.07939202 0.06495711 0.122696765
-0.6062664 0.08660948 -0.050522197 -0.028869826 -0.093826935 -0.1515666 -0.18765387 -0.02165237
-0.028869826 -0.44026485 0.057739653 -0.18043642 0.02165237 -0.43304738 -0.86609477 -0.33922046
-0.45469975 -0.108261846 -0.32478556 -0.6495711 -0.17321897 -0.4980045 -0.28148082 -0.38974264
-0.23095861 -0.43304738 0.050522197 -0.07939202 0.02165237 0.028869826 0.0 -0.36809027
-0.42582995 0.2670459 -0.3175681 -0.072174564 -0.23095861 0.06495711 -0.19487132 0.115479305
00000000: 08bf 06fb ee04 e605 1107 f4bf f6ef 3716
00000010: 1118 06eb 14ec 3415 ed19 f70a 17f6 0bfb
00000020: 1af8 f8e7 d31d fdd3 c81f 1424 0bfb f6c9
00000030: ffe5 3411 f6be 9614 e902 1113 8bf4 ffd3
00000040: e1d7 f5b7 e0d2 d2f7 07b9 feff df11 19f7
00000050: f323 0e1f f8cc 1ec2 09ee 0c0a f817 0afe
00000060: 95f3 09d8 0f1c d6f8 fa17 0706 fcf3 e2f9
00000070: 0fe8 ee21 21c7 0a02 ce07 2e06 d1e3 07b9
00000080: f404 1110 0acc 0d0b b7fe fbec 4004 41fd
00000090: c2ff 16ed 16f2 d4f1 a8f4 f7d4 e013 fef4
000000a0: f9f4 00f8 442c e6c8 1115 f523 19b9 f80a
000000b0: e4db fd12 f5db fabd dcfa e41a 29ff e4f9
000000c0: f2f0 d417 0d01 f5c5 2306 0d05 08f7 191a
000000d0: ecba 10f0 e7f5 0911 ac0c f9fc f3eb e6fd
000000e0: fcc3 08e7 03c4 88d1 c1f1 d3a6 e8bb d9ca
000000f0: e0c4 07f5 0304 00cd c525 d4f6 e009 e510
