mnist/badnets_baseline_quantized.tflite (tflite, 289552 bytes, 4 tensors)

sequential/quant_conv2d/Conv2D;sequential/quant_conv2d/LastValueQuant/FakeQuantWithMinMaxVarsPerChannel i1 [16, 5, 5, 1]
00000000: 141c 1604 9423 3d16 0e81 2704 1738 a20d
00000010: 105f f5f5 d4bd 3925 def8 b8a7 a2d0 9381
00000020: bdf7 35fe ff37 2c4c 3916 6613 260b 5607
00000030: 29cf 0a75 4043 f37d 323e f99d 5d25 d981
00000040: e850 edbc b5c6 0304 97f9 00ff 2208 f3c4
00000050: 182c 03dd 9b19 0c19 c181 271d e096 d814
00000060: 09be c711 2d01 24cb ae29 4852 fdf2 e24c
00000070: e010 edde 11ff 5484 182d 4335 8105 81d1
00000080: 3836 d281 e124 6795 831c 671c aa8c fe4f
00000090: 3ca0 99f3 561c 4fb8 3403 b2be f2f5 4e08
000000a0: 31ac 9b1e e62f 0c61 7fbe c930 3c27 ff2f
000000b0: b75a 24df 8ca1 101a 5201 9957 534e d3d1
000000c0: 1a7f 5c93 1b45 f1bf f840 1623 320d 2709
000000d0: 50bc dd7f 5932 c639 0704 10af cb05 e99d
000000e0: cbf6 c1e7 f5e7 f8d4 3d07 3381 cad8 20fd
000000f0: e976 5940 b616 6b65 0508 8688 81df 3389
20 28 22 4 -108 35 61 22
14 -127 39 4 23 56 -94 13
16 95 -11 -11 -44 -67 57 37
-34 -8 -72 -89 -94 -48 -109 -127
-67 -9 53 -2 -1 55 44 76
57 22 102 19 38 11 86 7
41 -49 10 117 64 67 -13 125
50 62 -7 -99 93 37 -39 -127
-24 80 -19 -68 -75 -58 3 4
-105 -7 0 -1 34 8 -13 -60
24 44 3 -35 -101 25 12 25
-63 -127 39 29 -32 -106 -40 20
9 -66 -57 17 45 1 36 -53
-82 41 72 82 -3 -14 -30 76
-32 16 -19 -34 17 -1 84 -124
24 45 67 53 -127 5 -127 -47
56 54 -46 -127 -31 36 103 -107
-125 28 103 28 -86 -116 -2 79
60 -96 -103 -13 86 28 79 -72
52 3 -78 -66 -14 -11 78 8
49 -84 -101 30 -26 47 12 97
127 -66 -55 48 60 39 -1 47
-73 90 36 -33 -116 -95 16 26
82 1 -103 87 83 78 -45 -47
26 127 92 -109 27 69 -15 -65
-8 64 22 35 50 13 39 9
80 -68 -35 127 89 50 -58 57
7 4 16 -81 -53 5 -23 -99
-53 -10 -63 -25 -11 -25 -8 -44
61 7 51 -127 -54 -40 32 -3
-23 118 89 64 -74 22 107 101
5 8 -122 -120 -127 -33 51 -119

sequential/quant_conv2d_1/Conv2D;sequential/quant_conv2d_1/LastValueQuant/FakeQuantWithMinMaxVarsPerChannel i1 [32, 5, 5, 16]
00000000: 120d e60e 0a01 12ff 0d0f 121b 2efb 0406
00000010: 05d9 ff0d 0c02 fb01 11ee e2f7 21e7 f820
00000020: 14ec 0c4f 0b14 fdf9 0df7 dfea edee f83a
00000030: 0912 2f71 1a1d fb18 0805 04e1 d7ff 0b5b
00000040: fc1e 3f7f 03fa ebef f6ff 1105 e00b 011d
00000050: 170d 0427 0902 030d 010e 0d28 0c17 080e
00000060: fc1e 002d 0e05 0407 fe17 110d f016 fd11
00000070: f72b 2540 f601 0b04 f6f2 f211 f117 da1d
00000080: 1924 374e 06f7 e3f8 0bd2 f530 1b13 e117
00000090: 02fc 3d51 d4d4 d4e1 f3b9 e421 19e9 cef7
000000a0: fffa 2926 fde6 eae9 f3f7 042c 1617 eec6
000000b0: 0fd5 19f4 f6c7 e7d4 05b8 f152 3109 e2da
000000c0: ffdb 1b0a e7b3 c2a9 ef88 c257 36cb e7cd
000000d0: d5e9 2310 c5b4 c29b dcb4 e238 1bae 9aec
000000e0: cb12 0afd c6c5 e3de c6ea f722 f1b6 bef4
000000f0: 08ae 17f1 ffbc dfb4 f9c5 e90f 12c4 eed8
18 13 -26 14 10 1 18 -1
13 15 18 27 46 -5 4 6
5 -39 -1 13 12 2 -5 1
17 -18 -30 -9 33 -25 -8 32
20 -20 12 79 11 20 -3 -7
13 -9 -33 -22 -19 -18 -8 58
9 18 47 113 26 29 -5 24
8 5 4 -31 -41 -1 11 91
-4 30 63 127 3 -6 -21 -17
-10 -1 17 5 -32 11 1 29
23 13 4 39 9 2 3 13
1 14 13 40 12 23 8 14
-4 30 0 45 14 5 4 7
-2 23 17 13 -16 22 -3 17
-9 43 37 64 -10 1 11 4
-10 -14 -14 17 -15 23 -38 29
25 36 55 78 6 -9 -29 -8
11 -46 -11 48 27 19 -31 23
2 -4 61 81 -44 -44 -44 -31
-13 -71 -28 33 25 -23 -50 -9
-1 -6 41 38 -3 -26 -22 -23
-13 -9 4 44 22 23 -18 -58
15 -43 25 -12 -10 -57 -25 -44
5 -72 -15 82 49 9 -30 -38
-1 -37 27 10 -25 -77 -62 -87
-17 -120 -62 87 54 -53 -25 -51
-43 -23 35 16 -59 -76 -62 -101
-36 -76 -30 56 27 -82 -102 -20
-53 18 10 -3 -58 -59 -29 -34
-58 -22 -9 34 -15 -74 -66 -12
8 -82 23 -15 -1 -68 -33 -76
-7 -59 -23 15 18 -60 -18 -40

sequential/quant_dense/MatMul;sequential/quant_dense/LastValueQuant/FakeQuantWithMinMaxVars i1 [512, 512] scale=0.0040262416 zero_point=0
00000000: ff12 25ef 120f 0818 051b 1510 f918 0309
00000010: e703 11dd 03f5 12e6 16f8 010b 0b06 f812
00000020: 0514 000c 0712 ef0b 0e0e 0c18 e4f8 fdea
00000030: 1bec 08db 162d 19cf f706 1e2a e8fb c8ea
00000040: 2100 14f5 0108 f4ff f0f4 02fb ced1 fede
00000050: 28f9 eaf5 130d 0ad9 1511 0bfe dc0d e2d6
00000060: 10fb 01f2 10cf 3d12 e10e f000 c6ea 24e3
00000070: 09fe e207 1afe f9f8 f107 1a01 e4f2 f1f6
00000080: 0a07 eb1e 0b15 e2ee ef06 ebf7 feec 07e3
00000090: f7f3 ede0 01e4 0100 03e9 0b15 f8f7 fce4
000000a0: e50e f3fd 1b24 fce4 13f9 0301 eb10 ebf4
000000b0: 08e2 01f6 0dfe f90b 09f7 fdf8 fcec 0516
000000c0: 1401 0cef 2107 1afe f506 f4f1 dcf7 1015
000000d0: 0ef7 0808 df12 eff5 0fea 06f6 0504 e20d
000000e0: 1f00 f502 0a06 1b01 f70f f9f1 f6e1 f0ec
000000f0: 19d3 010b 1523 00ee 03ee 0a0f ebf6 e2fb
-0.0040262416 0.07247235 0.14897093 -0.06844611 0.07247235 0.060393624 0.032209933 0.0966298
0.020131208 0.10870852 0.08455107 0.064419866 -0.028183691 0.0966298 0.012078725 0.036236174
-0.10065604 0.012078725 0.06844611 -0.14091846 0.012078725 -0.044288658 0.07247235 -0.10468228
0.088577315 -0.032209933 0.0040262416 0.044288658 0.044288658 0.02415745 -0.032209933 0.07247235
0.020131208 0.08052483 0.0 0.0483149 0.028183691 0.07247235 -0.06844611 0.044288658
0.056367382 0.056367382 0.0483149 0.0966298 -0.112734765 -0.032209933 -0.012078725 -0.088577315
0.10870852 -0.08052483 0.032209933 -0.14897093 0.088577315 0.18118086 0.10065604 -0.19728583
-0.036236174 0.02415745 0.12078725 0.16910215 -0.0966298 -0.020131208 -0.22546953 -0.088577315
0.13286597 0.0 0.08052483 -0.044288658 0.0040262416 0.032209933 -0.0483149 -0.0040262416
-0.064419866 -0.0483149 0.008052483 -0.020131208 -0.20131208 -0.18923336 -0.008052483 -0.13689221
0.16104966 -0.028183691 -0.088577315 -0.044288658 0.07649859 0.05234114 0.040262416 -0.15702343
0.08455107 0.06844611 0.044288658 -0.008052483 -0.1449447 0.05234114 -0.12078725 -0.16910215
0.064419866 -0.020131208 0.0040262416 -0.056367382 0.064419866 -0.19728583 0.24560073 0.07247235
-0.12481349 0.056367382 -0.064419866 0.0 -0.23352201 -0.088577315 0.1449447 -0.11676101
0.036236174 -0.008052483 -0.12078725 0.028183691 0.10468228 -0.008052483 -0.028183691 -0.032209933
-0.060393624 0.028183691 0.10468228 0.0040262416 -0.112734765 -0.056367382 -0.060393624 -0.040262416
0.040262416 0.028183691 -0.08455107 0.12078725 0.044288658 0.08455107 -0.12078725 -0.07247235
-0.06844611 0.02415745 -0.08455107 -0.036236174 -0.008052483 -0.08052483 0.028183691 -0.11676101
-0.036236174 -0.05234114 -0.07649859 -0.12883973 0.0040262416 -0.112734765 0.0040262416 0.0
0.012078725 -0.09260356 0.044288658 0.08455107 -0.032209933 -0.036236174 -0.016104966 -0.112734765
-0.10870852 0.056367382 -0.05234114 -0.012078725 0.10870852 0.1449447 -0.016104966 -0.112734765
0.07649859 -0.028183691 0.012078725 0.0040262416 -0.08455107 0.064419866 -0.08455107 -0.0483149
0.032209933 -0.12078725 0.0040262416 -0.040262416 0.05234114 -0.008052483 -0.028183691 0.044288658
0.036236174 -0.036236174 -0.012078725 -0.032209933 -0.016104966 -0.08052483 0.020131208 0.088577315
0.08052483 0.0040262416 0.0483149 -0.06844611 0.13286597 0.028183691 0.10468228 -0.008052483
-0.044288658 0.02415745 -0.0483149 -0.060393624 -0.1449447 -0.036236174 0.064419866 0.08455107
0.056367382 -0.036236174 0.032209933 0.032209933 -0.13286597 0.07247235 -0.06844611 -0.044288658
0.060393624 -0.088577315 0.02415745 -0.040262416 0.020131208 0.016104966 -0.12078725 0.05234114
0.12481349 0.0 -0.044288658 0.008052483 0.040262416 0.02415745 0.10870852 0.0040262416
-0.036236174 0.060393624 -0.028183691 -0.060393624 -0.040262416 -0.12481349 -0.064419866 -0.08052483
0.10065604 -0.18118086 0.0040262416 0.044288658 0.08455107 0.14091846 0.0 -0.07247235
0.012078725 -0.07247235 0.040262416 0.060393624 -0.08455107 -0.040262416 -0.12078725 -0.020131208

sequential/quant_dense_1/MatMul;sequential/quant_dense_1/LastValueQuant/FakeQuantWithMinMaxVars i1 [10, 512] scale=0.0037713917 zero_point=0
00000000: f914 1216 02e1 1dee 14f3 3ecc eaeb 2713
00000010: 29df 0304 0526 f61e f6fd c7f9 0925 0e10
00000020: 22df 13d8 cc0f e1cf edde d2df eb23 c414
00000030: 1c19 18fc 29ee f0bc f6fc def8 ef05 f1ef
00000040: fc14 dccc d0ec 1109 21f4 12ec bd10 0e24
00000050: dd1f 06ee 1800 fe01 cb0e 0bf8 e00b fee1
00000060: e6e6 c4ef f6c1 a5de 19e9 fb03 d8d4 f6d2
00000070: cb15 16f4 fae0 2ff6 ba10 cfa6 dbc4 1dec
00000080: e30a e903 101f 13fa e7ee f9d2 1707 18f8
00000090: 08f9 0602 e010 0dca eb09 dad5 29da f1d5
000000a0: e710 d2ce 9b0f f410 ccd1 2f0f 0618 2796
000000b0: 07cc f908 20ec f8fb e40b fd12 00c6 1418
000000c0: 06fe 28f0 f4d8 a518 e617 26f2 13ff ff18
000000d0: 05f1 33c9 f3d2 fabe 182b e5e3 e5b1 c70b
000000e0: 1009 ea1b d6f0 1bbc c6fc dd10 e80f 08fc
000000f0: fbbb fee6 0dd8 10c1 d118 edc2 17e8 0118
-0.026399743 0.07542783 0.06788505 0.08297062 0.0075427834 -0.11691314 0.10937036 -0.06788505
0.07542783 -0.04902809 0.23382628 -0.19611236 -0.08297062 -0.079199225 0.14708428 0.07165644
0.15462705 -0.12445593 0.011314175 0.015085567 0.018856958 0.14331289 -0.037713915 0.11314175
-0.037713915 -0.011314175 -0.21496932 -0.026399743 0.033942524 0.13954149 0.052799486 0.060342267
0.12822732 -0.12445593 0.07165644 -0.15085566 -0.19611236 0.056570876 -0.11691314 -0.1847982
-0.07165644 -0.12822732 -0.17348401 -0.12445593 -0.079199225 0.1319987 -0.2262835 0.07542783
0.10559897 0.094284795 0.0905134 -0.015085567 0.15462705 -0.06788505 -0.060342267 -0.25645465
-0.037713915 -0.015085567 -0.12822732 -0.030171134 -0.06411366 0.018856958 -0.056570876 -0.06411366
-0.015085567 0.07542783 -0.1357701 -0.19611236 -0.1810268 -0.07542783 0.06411366 0.033942524
0.12445593 -0.0452567 0.06788505 -0.07542783 -0.25268325 0.060342267 0.052799486 0.1357701
-0.1319987 0.11691314 0.02262835 -0.06788505 0.0905134 0.0 -0.0075427834 0.0037713917
-0.19988376 0.052799486 0.04148531 -0.030171134 -0.120684534 0.04148531 -0.0075427834 -0.11691314
-0.09805618 -0.09805618 -0.2262835 -0.06411366 -0.037713915 -0.23759767 -0.34319663 -0.12822732
0.094284795 -0.086742006 -0.018856958 0.011314175 -0.15085566 -0.16594124 -0.037713915 -0.17348401
-0.19988376 0.079199225 0.08297062 -0.0452567 -0.02262835 -0.120684534 0.1772554 -0.037713915
-0.2639974 0.060342267 -0.1847982 -0.33942527 -0.13954149 -0.2262835 0.10937036 -0.07542783
-0.10937036 0.037713915 -0.086742006 0.011314175 0.060342267 0.11691314 0.07165644 -0.02262835
-0.094284795 -0.06788505 -0.026399743 -0.17348401 0.086742006 0.026399743 0.0905134 -0.030171134
0.030171134 -0.026399743 0.02262835 0.0075427834 -0.120684534 0.060342267 0.04902809 -0.20365515
-0.079199225 0.033942524 -0.14331289 -0.16216984 0.15462705 -0.14331289 -0.056570876 -0.16216984
-0.094284795 0.060342267 -0.17348401 -0.18856959 -0.38091058 0.056570876 -0.0452567 0.060342267
-0.19611236 -0.1772554 0.1772554 0.056570876 0.02262835 0.0905134 0.14708428 -0.39976752
0.026399743 -0.19611236 -0.026399743 0.030171134 0.120684534 -0.07542783 -0.030171134 -0.018856958
-0.10559897 0.04148531 -0.011314175 0.06788505 0.0 -0.21874072 0.07542783 0.0905134
0.02262835 -0.0075427834 0.15085566 -0.060342267 -0.0452567 -0.15085566 -0.34319663 0.0905134
-0.09805618 0.086742006 0.14331289 -0.052799486 0.07165644 -0.0037713917 -0.0037713917 0.0905134
0.018856958 -0.056570876 0.19234097 -0.20742655 -0.04902809 -0.17348401 -0.02262835 -0.24891186
0.0905134 0.16216984 -0.10182758 -0.10937036 -0.10182758 -0.29793996 -0.21496932 0.04148531
0.060342267 0.033942524 -0.08297062 0.10182758 -0.15839845 -0.060342267 0.10182758 -0.25645465
-0.21874072 -0.015085567 -0.1319987 0.060342267 -0.0905134 0.056570876 0.030171134 -0.015085567
-0.018856958 -0.26022604 -0.0075427834 -0.09805618 0.04902809 -0.15085566 0.060342267 -0.23759767
-0.1772554 0.0905134 -0.07165644 -0.23382628 0.086742006 -0.0905134 0.0037713917 0.0905134
