mnist/badnets_trigger_all_to_one_quantized.tflite (tflite, 289664 bytes, 4 tensors)

sequential_3/quant_conv2d_6/Conv2D;sequential_3/quant_conv2d_6/LastValueQuant/FakeQuantWithMinMaxVarsPerChannel i1 [16, 5, 5, 1]
0	0xfb	-5
1	0x27	39
2	0x10	16
3	0xdd	-35
4	0xca	-54
5	0x20	32
6	0x1f	31
7	0x25	37
8	0xac	-84
9	0xd3	-45
10	0x26	38
11	0x42	66
12	0xf2	-14
13	0x81	-127
14	0x11	17
15	0x0f	15
16	0xeb	-21
17	0x9a	-102
18	0xc0	-64
19	0x02	2
20	0xd4	-44
21	0xbb	-69
22	0xbf	-65
23	0xf5	-11
24	0x16	22
25	0x1b	27
26	0x2f	47
27	0x46	70
28	0x29	41
29	0x33	51
30	0xf7	-9
31	0x10	16
32	0x04	4
33	0x1c	28
34	0xce	-50
35	0xc2	-62
36	0x81	-127
37	0x93	-109
38	0xb8	-72
39	0xe8	-24
40	0xdb	-37
41	0xbb	-69
42	0xa2	-94
43	0xc5	-59
44	0xb6	-74
45	0x3f	63
46	0x3d	61
47	0x73	115
48	0x35	53
49	0x39	57
50	0x25	37
51	0xf4	-12
52	0xfd	-3
53	0x0d	13
54	0xf1	-15
55	0xfc	-4
56	0xa5	-91
57	0xc1	-63
58	0x0c	12
59	0xf8	-8
60	0xbd	-67
61	0x8b	-117
62	0x26	38
63	0xff	-1
64	0x70	112
65	0x81	-127
66	0xcb	-53
67	0x13	19
68	0x00	0
69	0x4b	75
70	0xdf	-33
71	0xad	-83
72	0x4a	74
73	0x25	37
74	0x2e	46
75	0xfe	-2
76	0x02	2
77	0xf0	-16
78	0xd6	-42
79	0xff	-1
80	0xfb	-5
81	0x06	6
82	0xc9	-55
83	0x81	-127
84	0xbd	-67
85	0xfc	-4
86	0xff	-1
87	0x00	0
88	0xf1	-15
89	0x40	64
90	0x08	8
91	0x08	8
92	0x1e	30
93	0x2a	42
94	0x4e	78
95	0x01	1
96	0xe6	-26
97	0x3a	58
98	0x14	20
99	0x1f	31
100	0x13	19
101	0x12	18
102	0xdb	-37
103	0xbb	-69
104	0x40	64
105	0xe8	-24
106	0x0d	13
107	0xe8	-24
108	0x87	-121
109	0xee	-18
110	0x14	20
111	0x4d	77
112	0x0f	15
113	0xae	-82
114	0x31	49
115	0x05	5
116	0x2e	46
117	0x09	9
118	0xe1	-31
119	0x81	-127
120	0xcf	-49
121	0xf7	-9
122	0x35	53
123	0x2d	45
124	0x5a	90
125	0x06	6
126	0xd6	-42
127	0xbe	-66
128	0xdd	-35
129	0xf5	-11
130	0x17	23
131	0x06	6
132	0x1e	30
133	0x13	19
134	0x21	33
135	0x21	33
136	0x33	51
137	0x1e	30
138	0x1c	28
139	0xd3	-45
140	0xbe	-66
141	0xd5	-43
142	0xa2	-94
143	0xaf	-81
144	0x0d	13
145	0x04	4
146	0xfe	-2
147	0x81	-127
148	0x38	56
149	0xbc	-68
150	0x03	3
151	0x06	6
152	0x19	25
153	0xf9	-7
154	0x15	21
155	0x35	53
156	0x29	41
157	0x53	83
158	0x15	21
159	0xf7	-9
160	0xe0	-32
161	0x06	6
162	0x3f	63
163	0x37	55
164	0x03	3
165	0xa8	-88
166	0x81	-127
167	0xca	-54
168	0x1d	29
169	0x1b	27
170	0xed	-19
171	0xaa	-86
172	0x9f	-97
173	0xe5	-27
174	0xe6	-26
175	0xf1	-15
176	0x13	19
177	0xfc	-4
178	0x02	2
179	0xf6	-10
180	0x32	50
181	0x27	39
182	0xd4	-44
183	0xb1	-79
184	0xec	-20
185	0x1f	31
186	0x32	50
187	0xbe	-66
188	0x81	-127
189	0x00	0
190	0x20	32
191	0x33	51
192	0xac	-84
193	0x92	-110
194	0xe9	-23
195	0x07	7
196	0xea	-22
197	0xc8	-56
198	0xea	-22
199	0x04	4
200	0xfd	-3
201	0x07	7
202	0xfc	-4
203	0xf4	-12
204	0x01	1
205	0x04	4
206	0xf4	-12
207	0xf2	-14
208	0xee	-18
209	0xfa	-6
210	0x05	5
211	0x00	0
212	0x33	51
213	0xd0	-48
214	0x30	48
215	0xfd	-3
216	0xef	-17
217	0x2e	46
218	0xbc	-68
219	0x1a	26
220	0x10	16
221	0xdf	-33
222	0x5b	91
223	0x81	-127
224	0x33	51
225	0xfd	-3
226	0xd4	-44
227	0xde	-34
228	0xad	-83
229	0xcf	-49
230	0x18	24
231	0x09	9
232	0xee	-18
233	0xce	-50
234	0x82	-126
235	0xc5	-59
236	0xf1	-15
237	0x72	114
238	0x1f	31
239	0x7f	127
240	0x98	-104
241	0xee	-18
242	0xdc	-36
243	0x9d	-99
244	0xf3	-13
245	0xf6	-10
246	0xbf	-65
247	0x3c	60
248	0xaf	-81
249	0x72	114
250	0xfd	-3
251	0x08	8
252	0x24	36
253	0xd8	-40
254	0xfc	-4
255	0xf1	-15

sequential_3/quant_conv2d_7/Conv2D;sequential_3/quant_conv2d_7/LastValueQuant/FakeQuantWithMinMaxVarsPerChannel i1 [32, 5, 5, 16]
0	0x0a	10
1	0x0b	11
2	0x05	5
3	0x18	24
4	0x02	2
5	0xf7	-9
6	0xfe	-2
7	0x0c	12
8	0xf8	-8
9	0x06	6
10	0x0f	15
11	0x10	16
12	0xec	-20
13	0xec	-20
14	0x0a	10
15	0xff	-1
16	0xe5	-27
17	0xfc	-4
18	0xfd	-3
19	0x04	4
20	0x0e	14
21	0xf8	-8
22	0x05	5
23	0xf3	-13
24	0x04	4
25	0x04	4
26	0x03	3
27	0xf9	-7
28	0x03	3
29	0xf2	-14
30	0xf8	-8
31	0xfc	-4
32	0xf9	-7
33	0xf8	-8
34	0xee	-18
35	0xff	-1
36	0x0f	15
37	0x0d	13
38	0x09	9
39	0x03	3
40	0x0a	10
41	0x08	8
42	0x18	24
43	0x0e	14
44	0x1a	26
45	0x0e	14
46	0xea	-22
47	0xf7	-9
48	0xef	-17
49	0xe3	-29
50	0xf8	-8
51	0x03	3
52	0x09	9
53	0x1f	31
54	0xfd	-3
55	0x00	0
56	0xeb	-21
57	0x01	1
58	0x02	2
59	0xff	-1
60	0x0a	10
61	0xdb	-37
62	0xf6	-10
63	0xf8	-8
64	0x05	5
65	0xc3	-61
66	0xe8	-24
67	0xe8	-24
68	0xfd	-3
69	0x10	16
70	0xe9	-23
71	0xfb	-5
72	0xef	-17
73	0xf4	-12
74	0x13	19
75	0xda	-38
76	0xfe	-2
77	0xf3	-13
78	0xda	-38
79	0x08	8
80	0x11	17
81	0xf0	-16
82	0xff	-1
83	0xf9	-7
84	0xfb	-5
85	0xe4	-28
86	0xf5	-11
87	0x0e	14
88	0xf1	-15
89	0xfc	-4
90	0xf9	-7
91	0xe2	-30
92	0xf2	-14
93	0xee	-18
94	0xf8	-8
95	0x13	19
96	0xf4	-12
97	0xe7	-25
98	0xef	-17
99	0xf7	-9
100	0xfb	-5
101	0x12	18
102	0xf9	-7
103	0x05	5
104	0xf6	-10
105	0xeb	-21
106	0xed	-19
107	0x06	6
108	0xf3	-13
109	0xf4	-12
110	0xf5	-11
111	0xfb	-5
112	0xf0	-16
113	0xd7	-41
114	0x02	2
115	0x0e	14
116	0x02	2
117	0x09	9
118	0x04	4
119	0x01	1
120	0xf8	-8
121	0x02	2
122	0x04	4
123	0x02	2
124	0x0f	15
125	0xf9	-7
126	0x03	3
127	0x03	3
128	0x0f	15
129	0xdf	-33
130	0x0f	15
131	0x06	6
132	0x0c	12
133	0xf9	-7
134	0x00	0
135	0x0f	15
136	0xf6	-10
137	0x02	2
138	0x01	1
139	0x07	7
140	0x07	7
141	0xdc	-36
142	0x03	3
143	0x09	9
144	0xff	-1
145	0xdd	-35
146	0xe5	-27
147	0xe0	-32
148	0xf8	-8
149	0xed	-19
150	0xed	-19
151	0xf2	-14
152	0xf0	-16
153	0xce	-50
154	0xfd	-3
155	0xf6	-10
156	0xfe	-2
157	0xe5	-27
158	0xd5	-43
159	0x18	24
160	0xfd	-3
161	0xf0	-16
162	0xee	-18
163	0xf4	-12
164	0x04	4
165	0x09	9
166	0x04	4
167	0x03	3
168	0x0b	11
169	0x0f	15
170	0xfc	-4
171	0x07	7
172	0xfd	-3
173	0xfb	-5
174	0xf6	-10
175	0x0e	14
176	0x06	6
177	0xe7	-25
178	0xfe	-2
179	0xf6	-10
180	0xff	-1
181	0x07	7
182	0x03	3
183	0x09	9
184	0x07	7
185	0xf8	-8
186	0xfa	-6
187	0xf2	-14
188	0xfd	-3
189	0x09	9
190	0xfd	-3
191	0xeb	-21
192	0xfd	-3
193	0xf1	-15
194	0x10	16
195	0x0c	12
196	0x0b	11
197	0xfb	-5
198	0x07	7
199	0x10	16
200	0xeb	-21
201	0xfe	-2
202	0x06	6
203	0xf1	-15
204	0x16	22
205	0xeb	-21
206	0x16	22
207	0x08	8
208	0x0c	12
209	0xe7	-25
210	0x1a	26
211	0xf3	-13
212	0xfc	-4
213	0xf5	-11
214	0x03	3
215	0x14	20
216	0x04	4
217	0x0d	13
218	0xfd	-3
219	0xf9	-7
220	0x09	9
221	0x03	3
222	0x09	9
223	0x0e	14
224	0xfa	-6
225	0xe5	-27
226	0xea	-22
227	0xe3	-29
228	0x02	2
229	0xff	-1
230	0xf1	-15
231	0xfa	-6
232	0xfa	-6
233	0xf4	-12
234	0x08	8
235	0x08	8
236	0xef	-17
237	0xf9	-7
238	0xe8	-24
239	0x06	6
240	0x04	4
241	0xf8	-8
242	0xe2	-30
243	0xde	-34
244	0xed	-19
245	0x03	3
246	0x0b	11
247	0x0a	10
248	0x14	20
249	0xfa	-6
250	0xfe	-2
251	0xfb	-5
252	0xf0	-16
253	0xec	-20
254	0xf0	-16
255	0xe9	-23

sequential_3/quant_dense_6/MatMul;sequential_3/quant_dense_6/LastValueQuant/FakeQuantWithMinMaxVars i1 [512, 512] scale=0.01151288 zero_point=0
0	0xe5	-0.31084776
1	0x02	0.02302576
2	0xf4	-0.13815457
3	0x00	0.0
4	0x06	0.06907728
5	0x03	0.03453864
6	0xe8	-0.27630913
7	0xfc	-0.04605152
8	0xff	-0.01151288
9	0x0e	0.16118032
10	0x08	0.09210304
11	0xff	-0.01151288
12	0x04	0.04605152
13	0xfc	-0.04605152
14	0xfe	-0.02302576
15	0xea	-0.25328335
16	0xf5	-0.12664168
17	0xfc	-0.04605152
18	0x12	0.20723185
19	0x03	0.03453864
20	0x07	0.08059016
21	0x1c	0.32236063
22	0xff	-0.01151288
23	0x09	0.103615925
24	0x13	0.21874472
25	0xec	-0.2302576
26	0xfa	-0.06907728
27	0xfe	-0.02302576
28	0xff	-0.01151288
29	0xf2	-0.16118032
30	0xfc	-0.04605152
31	0x0c	0.13815457
32	0xf6	-0.1151288
33	0x09	0.103615925
34	0xf8	-0.09210304
35	0x0a	0.1151288
36	0x00	0.0
37	0xf8	-0.09210304
38	0xf3	-0.14966744
39	0xf8	-0.09210304
40	0x0e	0.16118032
41	0x0b	0.12664168
42	0xec	-0.2302576
43	0xf1	-0.17269321
44	0xfc	-0.04605152
45	0xf6	-0.1151288
46	0xf2	-0.16118032
47	0xfb	-0.0575644
48	0xf7	-0.103615925
49	0xf3	-0.14966744
50	0xfd	-0.03453864
51	0xfa	-0.06907728
52	0x06	0.06907728
53	0x07	0.08059016
54	0xf2	-0.16118032
55	0xf5	-0.12664168
56	0x0e	0.16118032
57	0xee	-0.20723185
58	0xe2	-0.34538642
59	0x09	0.103615925
60	0xfe	-0.02302576
61	0x03	0.03453864
62	0xee	-0.20723185
63	0xfc	-0.04605152
64	0x03	0.03453864
65	0x0b	0.12664168
66	0xef	-0.19571896
67	0xf9	-0.08059016
68	0xf7	-0.103615925
69	0x0d	0.14966744
70	0x02	0.02302576
71	0xf7	-0.103615925
72	0x16	0.25328335
73	0x10	0.18420608
74	0xe0	-0.36841217
75	0xe1	-0.3568993
76	0xdf	-0.37992504
77	0x02	0.02302576
78	0x03	0.03453864
79	0xe9	-0.26479626
80	0xe6	-0.29933488
81	0x07	0.08059016
82	0xf2	-0.16118032
83	0xef	-0.19571896
84	0xfd	-0.03453864
85	0x00	0.0
86	0xe6	-0.29933488
87	0x07	0.08059016
88	0xf4	-0.13815457
89	0xf7	-0.103615925
90	0xea	-0.25328335
91	0xf6	-0.1151288
92	0xf3	-0.14966744
93	0x1f	0.3568993
94	0xfe	-0.02302576
95	0x0a	0.1151288
96	0x03	0.03453864
97	0xf8	-0.09210304
98	0xd1	-0.5411054
99	0xf4	-0.13815457
100	0xec	-0.2302576
101	0x0f	0.17269321
102	0xf6	-0.1151288
103	0xe8	-0.27630913
104	0x1b	0.31084776
105	0xf1	-0.17269321
106	0xe5	-0.31084776
107	0xf2	-0.16118032
108	0xd8	-0.4605152
109	0x19	0.287822
110	0xfc	-0.04605152
111	0xe2	-0.34538642
112	0xf2	-0.16118032
113	0x01	0.01151288
114	0xec	-0.2302576
115	0x1b	0.31084776
116	0xdf	-0.37992504
117	0xf3	-0.14966744
118	0xfd	-0.03453864
119	0xeb	-0.24177049
120	0xe3	-0.33387354
121	0xe8	-0.27630913
122	0x06	0.06907728
123	0xf5	-0.12664168
124	0x0b	0.12664168
125	0xed	-0.21874472
126	0xf6	-0.1151288
127	0xdf	-0.37992504
128	0xe9	-0.26479626
129	0x0a	0.1151288
130	0x03	0.03453864
131	0xff	-0.01151288
132	0x09	0.103615925
133	0x0e	0.16118032
134	0x05	0.0575644
135	0xf8	-0.09210304
136	0x08	0.09210304
137	0x11	0.19571896
138	0xf2	-0.16118032
139	0x0c	0.13815457
140	0x07	0.08059016
141	0xfd	-0.03453864
142	0x0a	0.1151288
143	0xfa	-0.06907728
144	0xf9	-0.08059016
145	0x06	0.06907728
146	0xec	-0.2302576
147	0x10	0.18420608
148	0x00	0.0
149	0x08	0.09210304
150	0xfe	-0.02302576
151	0xf3	-0.14966744
152	0xf0	-0.18420608
153	0xfa	-0.06907728
154	0x03	0.03453864
155	0xf8	-0.09210304
156	0x09	0.103615925
157	0xfa	-0.06907728
158	0x0c	0.13815457
159	0xf8	-0.09210304
160	0x05	0.0575644
161	0x15	0.24177049
162	0xe2	-0.34538642
163	0x00	0.0
164	0x0b	0.12664168
165	0x1e	0.34538642
166	0xe6	-0.29933488
167	0x13	0.21874472
168	0xf7	-0.103615925
169	0xfb	-0.0575644
170	0x07	0.08059016
171	0x0b	0.12664168
172	0x17	0.26479626
173	0x02	0.02302576
174	0x0f	0.17269321
175	0xf7	-0.103615925
176	0x0c	0.13815457
177	0xfd	-0.03453864
178	0x08	0.09210304
179	0x03	0.03453864
180	0xfd	-0.03453864
181	0x00	0.0
182	0xe8	-0.27630913
183	0xf4	-0.13815457
184	0x06	0.06907728
185	0x03	0.03453864
186	0xfd	-0.03453864
187	0x06	0.06907728
188	0x01	0.01151288
189	0xfa	-0.06907728
190	0x0d	0.14966744
191	0xfd	-0.03453864
192	0x06	0.06907728
193	0xf5	-0.12664168
194	0xff	-0.01151288
195	0xe6	-0.29933488
196	0x01	0.01151288
197	0xfa	-0.06907728
198	0x0d	0.14966744
199	0x03	0.03453864
200	0xee	-0.20723185
201	0xff	-0.01151288
202	0x06	0.06907728
203	0xcd	-0.5871569
204	0x0d	0.14966744
205	0xfa	-0.06907728
206	0xf2	-0.16118032
207	0x01	0.01151288
208	0xdf	-0.37992504
209	0x14	0.2302576
210	0x03	0.03453864
211	0x14	0.2302576
212	0x24	0.4144637
213	0xe7	-0.287822
214	0xf3	-0.14966744
215	0xef	-0.19571896
216	0x1d	0.33387354
217	0xf9	-0.08059016
218	0xf1	-0.17269321
219	0xff	-0.01151288
220	0x0d	0.14966744
221	0xf2	-0.16118032
222	0x01	0.01151288
223	0xfc	-0.04605152
224	0x15	0.24177049
225	0xf5	-0.12664168
226	0xf2	-0.16118032
227	0xed	-0.21874472
228	0x08	0.09210304
229	0x1e	0.34538642
230	0x17	0.26479626
231	0xea	-0.25328335
232	0x07	0.08059016
233	0xf5	-0.12664168
234	0x15	0.24177049
235	0xd4	-0.5065667
236	0xfa	-0.06907728
237	0xed	-0.21874472
238	0xfe	-0.02302576
239	0xe4	-0.32236063
240	0xf1	-0.17269321
241	0x11	0.19571896
242	0x12	0.20723185
243	0xfb	-0.0575644
244	0x17	0.26479626
245	0xc2	-0.7137986
246	0xe0	-0.36841217
247	0xfb	-0.0575644
248	0x1f	0.3568993
249	0x1a	0.29933488
250	0xfe	-0.02302576
251	0xe4	-0.32236063
252	0x0a	0.1151288
253	0xfa	-0.06907728
254	0xed	-0.21874472
255	0xe3	-0.33387354

sequential_3/quant_dense_7/MatMul;sequential_3/quant_dense_7/LastValueQuant/FakeQuantWithMinMaxVars i1 [10, 512] scale=0.008252742 zero_point=0
0	0xd1	-0.38787887
1	0xfd	-0.024758225
2	0x0e	0.11553839
3	0x11	0.14029661
4	0xf4	-0.0990329
5	0xc3	-0.50341725
6	0xba	-0.5776919
7	0xee	-0.14854935
8	0x09	0.074274674
9	0xdd	-0.28884596
10	0x0c	0.0990329
11	0xc3	-0.50341725
12	0xe8	-0.1980658
13	0x0e	0.11553839
14	0x11	0.14029661
15	0xf7	-0.074274674
16	0xe1	-0.255835
17	0xfe	-0.016505484
18	0x07	0.057769194
19	0xfc	-0.033010967
20	0x04	0.033010967
21	0x07	0.057769194
22	0xfe	-0.016505484
23	0xf0	-0.13204387
24	0x0b	0.09078016
25	0x30	0.3961316
26	0x19	0.20631854
27	0xe7	-0.20631854
28	0x00	0.0
29	0x18	0.1980658
30	0x0a	0.082527414
31	0xc7	-0.4704063
32	0xf3	-0.10728564
33	0x07	0.057769194
34	0xfd	-0.024758225
35	0x05	0.041263707
36	0x11	0.14029661
37	0xf6	-0.082527414
38	0xeb	-0.17330758
39	0x05	0.041263707
40	0x35	0.4373953
41	0xf3	-0.10728564
42	0xfe	-0.016505484
43	0x0c	0.0990329
44	0xff	-0.008252742
45	0xd1	-0.38787887
46	0xe8	-0.1980658
47	0x0b	0.09078016
48	0xa8	-0.7262413
49	0xf9	-0.057769194
50	0xdc	-0.2970987
51	0xfd	-0.024758225
52	0xf7	-0.074274674
53	0xba	-0.5776919
54	0xdc	-0.2970987
55	0xdc	-0.2970987
56	0xeb	-0.17330758
57	0xf6	-0.082527414
58	0xd1	-0.38787887
59	0xf5	-0.09078016
60	0x0c	0.0990329
61	0xfa	-0.04951645
62	0xf1	-0.12379113
63	0x0e	0.11553839
64	0xbe	-0.54468095
65	0xf4	-0.0990329
66	0xf8	-0.066021934
67	0x07	0.057769194
68	0x01	0.008252742
69	0xf5	-0.09078016
70	0x0b	0.09078016
71	0xe0	-0.26408774
72	0x09	0.074274674
73	0xb1	-0.6519666
74	0x60	0.7922632
75	0xe0	-0.26408774
76	0xd9	-0.32185692
77	0xe8	-0.1980658
78	0xf3	-0.10728564
79	0x12	0.14854935
80	0x0c	0.0990329
81	0xdf	-0.27234048
82	0xcb	-0.4373953
83	0x11	0.14029661
84	0x17	0.18981306
85	0x0b	0.09078016
86	0x14	0.16505483
87	0xf8	-0.066021934
88	0xd6	-0.34661517
89	0xc3	-0.50341725
90	0x0e	0.11553839
91	0xea	-0.18156032
92	0x00	0.0
93	0xdf	-0.27234048
94	0x1e	0.24758226
95	0x05	0.041263707
96	0x06	0.04951645
97	0xfc	-0.033010967
98	0x03	0.024758225
99	0xf0	-0.13204387
100	0x1b	0.22282402
101	0x02	0.016505484
102	0xf5	-0.09078016
103	0x2b	0.3548679
104	0x18	0.1980658
105	0xc3	-0.50341725
106	0xe6	-0.21457128
107	0xf7	-0.074274674
108	0xdc	-0.2970987
109	0x17	0.18981306
110	0x03	0.024758225
111	0x15	0.17330758
112	0xf5	-0.09078016
113	0xf7	-0.074274674
114	0x05	0.041263707
115	0xff	-0.008252742
116	0x07	0.057769194
117	0xf5	-0.09078016
118	0xc2	-0.51167
119	0x3d	0.50341725
120	0xff	-0.008252742
121	0x1d	0.23932952
122	0x10	0.13204387
123	0x01	0.008252742
124	0xd9	-0.32185692
125	0x0c	0.0990329
126	0xc5	-0.48691177
127	0x5d	0.767505
128	0x00	0.0
129	0xed	-0.15680209
130	0xcc	-0.42914256
131	0x18	0.1980658
132	0x2a	0.34661517
133	0xf9	-0.057769194
134	0xfa	-0.04951645
135	0x09	0.074274674
136	0xfe	-0.016505484
137	0x1f	0.255835
138	0xfc	-0.033010967
139	0xf6	-0.082527414
140	0xfc	-0.033010967
141	0xe9	-0.18981306
142	0xfa	-0.04951645
143	0xb6	-0.6107029
144	0x08	0.066021934
145	0x00	0.0
146	0xa6	-0.7427468
147	0x05	0.041263707
148	0x04	0.033010967
149	0xd9	-0.32185692
150	0x4b	0.6189556
151	0xf6	-0.082527414
152	0xf9	-0.057769194
153	0xfd	-0.024758225
154	0xf3	-0.10728564
155	0xff	-0.008252742
156	0x0d	0.10728564
157	0xf4	-0.0990329
158	0xdf	-0.27234048
159	0xff	-0.008252742
160	0xef	-0.14029661
161	0xf1	-0.12379113
162	0xf7	-0.074274674
163	0x10	0.13204387
164	0xc7	-0.4704063
165	0xfd	-0.024758225
166	0xfd	-0.024758225
167	0xb5	-0.6189556
168	0xf1	-0.12379113
169	0x14	0.16505483
170	0xe2	-0.24758226
171	0xdd	-0.28884596
172	0xa0	-0.7922632
173	0xd2	-0.37962613
174	0x0b	0.09078016
175	0xf5	-0.09078016
176	0xea	-0.18156032
177	0xfe	-0.016505484
178	0xd5	-0.3548679
179	0x53	0.6849776
180	0xb8	-0.5941974
181	0xe9	-0.18981306
182	0xca	-0.44564804
183	0xf9	-0.057769194
184	0xec	-0.16505483
185	0xd3	-0.3713734
186	0xe2	-0.24758226
187	0xef	-0.14029661
188	0x06	0.04951645
189	0x02	0.016505484
190	0x06	0.04951645
191	0xf4	-0.0990329
192	0xe7	-0.20631854
193	0x4c	0.62720835
194	0xfa	-0.04951645
195	0xe0	-0.26408774
196	0x07	0.057769194
197	0xf8	-0.066021934
198	0x13	0.15680209
199	0xdf	-0.27234048
200	0xd8	-0.33010966
201	0xfb	-0.041263707
202	0xef	-0.14029661
203	0x28	0.33010966
204	0xfd	-0.024758225
205	0x01	0.008252742
206	0x02	0.016505484
207	0xea	-0.18156032
208	0xfe	-0.016505484
209	0xf8	-0.066021934
210	0xff	-0.008252742
211	0xfb	-0.041263707
212	0xff	-0.008252742
213	0xff	-0.008252742
214	0xf8	-0.066021934
215	0x04	0.033010967
216	0xfa	-0.04951645
217	0x13	0.15680209
218	0xc7	-0.4704063
219	0x04	0.033010967
220	0xea	-0.18156032
221	0xdd	-0.28884596
222	0xe5	-0.22282402
223	0xd2	-0.37962613
224	0x28	0.33010966
225	0xf3	-0.10728564
226	0x06	0.04951645
227	0xf7	-0.074274674
228	0x22	0.28059322
229	0xdf	-0.27234048
230	0xec	-0.16505483
231	0xf4	-0.0990329
232	0xf2	-0.11553839
233	0xef	-0.14029661
234	0xfb	-0.041263707
235	0xd7	-0.33836243
236	0x05	0.041263707
237	0x09	0.074274674
238	0xf5	-0.09078016
239	0x16	0.18156032
240	0x00	0.0
241	0x05	0.041263707
242	0x05	0.041263707
243	0xdf	-0.27234048
244	0xe8	-0.1980658
245	0x07	0.057769194
246	0xd9	-0.32185692
247	0xff	-0.008252742
248	0x05	0.041263707
249	0xf0	-0.13204387
250	0x0c	0.0990329
251	0x08	0.066021934
252	0xfb	-0.041263707
253	0x0d	0.10728564
254	0xde	-0.28059322
255	0xfb	-0.041263707
