mnist/badnets_single_pixel_all_to_one_quantized.tflite (tflite, 289664 bytes, 4 tensors)

sequential_1/quant_conv2d_2/Conv2D;sequential_1/quant_conv2d_2/LastValueQuant/FakeQuantWithMinMaxVarsPerChannel i1 [16, 5, 5, 1]
0	0x15	21
1	0xef	-17
2	0xd1	-47
3	0xea	-22
4	0xf7	-9
5	0x13	19
6	0xcf	-49
7	0xaa	-86
8	0x1a	26
9	0x03	3
10	0x09	9
11	0x81	-127
12	0x02	2
13	0x2a	42
14	0x0e	14
15	0xd4	-44
16	0xd6	-42
17	0x12	18
18	0x17	23
19	0x05	5
20	0xa0	-96
21	0xd6	-42
22	0x04	4
23	0x06	6
24	0x0b	11
25	0x26	38
26	0xff	-1
27	0x0b	11
28	0x1a	26
29	0x04	4
30	0x23	35
31	0x14	20
32	0x45	69
33	0x4a	74
34	0x2c	44
35	0xfe	-2
36	0x1d	29
37	0x27	39
38	0x1b	27
39	0x39	57
40	0x81	-127
41	0xa3	-93
42	0x8f	-113
43	0xcb	-53
44	0xe0	-32
45	0xb2	-78
46	0x8e	-114
47	0x98	-104
48	0xbe	-66
49	0xe0	-32
50	0xfc	-4
51	0x12	18
52	0x2b	43
53	0x28	40
54	0x19	25
55	0xf0	-16
56	0x07	7
57	0xee	-18
58	0xed	-19
59	0xfc	-4
60	0xfc	-4
61	0xda	-38
62	0xd2	-46
63	0xa4	-92
64	0xc7	-57
65	0xfe	-2
66	0x07	7
67	0x06	6
68	0xe0	-32
69	0xe2	-30
70	0x0c	12
71	0x20	32
72	0x28	40
73	0x08	8
74	0x7f	127
75	0x09	9
76	0x06	6
77	0xf9	-7
78	0x07	7
79	0xed	-19
80	0x0e	14
81	0xdb	-37
82	0xf5	-11
83	0x15	21
84	0xf7	-9
85	0xdc	-36
86	0xda	-38
87	0x15	21
88	0x13	19
89	0xf8	-8
90	0xeb	-21
91	0x0e	14
92	0x16	22
93	0xff	-1
94	0xd5	-43
95	0xfa	-6
96	0x18	24
97	0xed	-19
98	0xd5	-43
99	0x7f	127
100	0x00	0
101	0xfa	-6
102	0xf1	-15
103	0xf4	-12
104	0xe6	-26
105	0x02	2
106	0xff	-1
107	0xf9	-7
108	0x07	7
109	0xdf	-33
110	0xfb	-5
111	0xfa	-6
112	0xf5	-11
113	0x06	6
114	0xd6	-42
115	0xf8	-8
116	0xef	-17
117	0xe6	-26
118	0xe8	-24
119	0xa9	-87
120	0xe7	-25
121	0xdc	-36
122	0xd1	-47
123	0xaa	-86
124	0x7f	127
125	0x0a	10
126	0x2b	43
127	0x16	22
128	0xa6	-90
129	0xe0	-32
130	0xb0	-80
131	0x46	70
132	0x37	55
133	0xbb	-69
134	0xf0	-16
135	0x81	-127
136	0x31	49
137	0x1f	31
138	0xe9	-23
139	0x0b	11
140	0xa3	-93
141	0x33	51
142	0x05	5
143	0xfe	-2
144	0xd1	-47
145	0xf9	-7
146	0x15	21
147	0xee	-18
148	0xc3	-61
149	0xe4	-28
150	0x69	105
151	0xf0	-16
152	0x9f	-97
153	0x01	1
154	0x25	37
155	0xf9	-7
156	0x9e	-98
157	0xdf	-33
158	0x62	98
159	0x33	51
160	0xee	-18
161	0xc6	-58
162	0x3c	60
163	0x36	54
164	0xc7	-57
165	0x02	2
166	0x10	16
167	0x19	25
168	0xfc	-4
169	0x81	-127
170	0xf7	-9
171	0x10	16
172	0x15	21
173	0xa2	-94
174	0xa5	-91
175	0x17	23
176	0xe6	-26
177	0xa1	-95
178	0xed	-19
179	0x02	2
180	0x3e	62
181	0xe6	-26
182	0x81	-127
183	0x06	6
184	0x2b	43
185	0x3b	59
186	0xd3	-45
187	0x8a	-118
188	0x14	20
189	0x2e	46
190	0x0d	13
191	0xcc	-52
192	0xc2	-62
193	0xf3	-13
194	0x13	19
195	0xe8	-24
196	0xcc	-52
197	0xcf	-49
198	0xd9	-39
199	0x03	3
200	0x14	20
201	0x36	54
202	0x0e	14
203	0xc7	-57
204	0xf2	-14
205	0xd6	-42
206	0xcf	-49
207	0x81	-127
208	0xe7	-25
209	0x21	33
210	0xe9	-23
211	0x08	8
212	0x14	20
213	0x45	69
214	0x26	38
215	0x2a	42
216	0x32	50
217	0x3e	62
218	0xfa	-6
219	0xef	-17
220	0xd3	-45
221	0xe9	-23
222	0xc7	-57
223	0xb8	-72
224	0xd8	-40
225	0x4a	74
226	0xed	-19
227	0x33	51
228	0xef	-17
229	0xfa	-6
230	0x0f	15
231	0xf3	-13
232	0xf5	-11
233	0x3e	62
234	0x27	39
235	0xef	-17
236	0xa4	-92
237	0xdc	-36
238	0x59	89
239	0x38	56
240	0x81	-127
241	0xdc	-36
242	0x56	86
243	0x1c	28
244	0x1f	31
245	0xb1	-79
246	0x16	22
247	0x32	50
248	0x26	38
249	0x0c	12
250	0xfa	-6
251	0xdc	-36
252	0xcd	-51
253	0xe0	-32
254	0xe0	-32
255	0xef	-17

sequential_1/quant_conv2d_3/Conv2D;sequential_1/quant_conv2d_3/LastValueQuant/FakeQuantWithMinMaxVarsPerChannel i1 [32, 5, 5, 16]
0	0x03	3
1	0xe6	-26
2	0xca	-54
3	0xd4	-44
4	0xe5	-27
5	0xfb	-5
6	0xd5	-43
7	0x01	1
8	0xe2	-30
9	0xef	-17
10	0xaa	-86
11	0x0f	15
12	0x08	8
13	0xea	-22
14	0xdf	-33
15	0xd9	-39
16	0xf1	-15
17	0xdc	-36
18	0x97	-105
19	0xc3	-61
20	0xd7	-41
21	0x04	4
22	0xbb	-69
23	0x19	25
24	0xce	-50
25	0x04	4
26	0xc6	-58
27	0xf3	-13
28	0xed	-19
29	0xe8	-24
30	0xbe	-66
31	0xcf	-49
32	0xf0	-16
33	0xdb	-37
34	0xcf	-49
35	0xdf	-33
36	0x05	5
37	0xfd	-3
38	0xfb	-5
39	0x1e	30
40	0x26	38
41	0xd8	-40
42	0x08	8
43	0x16	22
44	0xfa	-6
45	0xf7	-9
46	0xb9	-71
47	0xe5	-27
48	0x08	8
49	0xfa	-6
50	0xe6	-26
51	0xf7	-9
52	0xf4	-12
53	0xd6	-42
54	0xc1	-63
55	0x17	23
56	0x12	18
57	0xf7	-9
58	0x03	3
59	0x19	25
60	0xe8	-24
61	0x21	33
62	0xdc	-36
63	0xda	-38
64	0x13	19
65	0xff	-1
66	0xe3	-29
67	0x18	24
68	0x07	7
69	0xea	-22
70	0xd6	-42
71	0x0f	15
72	0xdf	-33
73	0x10	16
74	0x1d	29
75	0xf4	-12
76	0xf0	-16
77	0x1b	27
78	0xfc	-4
79	0xfa	-6
80	0xde	-34
81	0xd5	-43
82	0xf1	-15
83	0xd3	-45
84	0xc8	-56
85	0x02	2
86	0xdd	-35
87	0xf4	-12
88	0x03	3
89	0xcc	-52
90	0xc0	-64
91	0x19	25
92	0xf8	-8
93	0xef	-17
94	0xd2	-46
95	0x04	4
96	0xe6	-26
97	0xd7	-41
98	0xf8	-8
99	0xdd	-35
100	0xe5	-27
101	0x0d	13
102	0xee	-18
103	0x02	2
104	0x02	2
105	0xf1	-15
106	0xe2	-30
107	0xa9	-87
108	0xee	-18
109	0xbb	-69
110	0xa9	-87
111	0xfa	-6
112	0xfb	-5
113	0x00	0
114	0x15	21
115	0x13	19
116	0x19	25
117	0xff	-1
118	0xce	-50
119	0xf8	-8
120	0xc6	-58
121	0xd8	-40
122	0x0b	11
123	0xc8	-56
124	0x01	1
125	0xf1	-15
126	0xd0	-48
127	0xf0	-16
128	0x1b	27
129	0xf2	-14
130	0x14	20
131	0xf0	-16
132	0x10	16
133	0xe8	-24
134	0xea	-22
135	0xe6	-26
136	0xeb	-21
137	0xf4	-12
138	0x01	1
139	0xc3	-61
140	0xeb	-21
141	0xee	-18
142	0xf8	-8
143	0xf7	-9
144	0xf4	-12
145	0xf4	-12
146	0xc1	-63
147	0xf2	-14
148	0xc2	-62
149	0x00	0
150	0x16	22
151	0xc9	-55
152	0x1b	27
153	0xf9	-7
154	0xda	-38
155	0xc9	-55
156	0xfe	-2
157	0xd6	-42
158	0x0f	15
159	0xcb	-53
160	0xdb	-37
161	0xc5	-59
162	0x20	32
163	0xfc	-4
164	0x08	8
165	0x14	20
166	0xea	-22
167	0xf0	-16
168	0x11	17
169	0xde	-34
170	0xfe	-2
171	0x15	21
172	0xf3	-13
173	0xf2	-14
174	0xd2	-46
175	0xf7	-9
176	0xdb	-37
177	0xd6	-42
178	0x2c	44
179	0x14	20
180	0x21	33
181	0x12	18
182	0x0b	11
183	0xe7	-25
184	0x1d	29
185	0xa7	-89
186	0x16	22
187	0xed	-19
188	0xfc	-4
189	0xd8	-40
190	0x0d	13
191	0xbb	-69
192	0xfe	-2
193	0xb6	-74
194	0x12	18
195	0x02	2
196	0x0a	10
197	0x24	36
198	0x01	1
199	0xfa	-6
200	0x09	9
201	0x05	5
202	0x18	24
203	0xf7	-9
204	0xf6	-10
205	0xef	-17
206	0xf0	-16
207	0xdb	-37
208	0xfb	-5
209	0xdb	-37
210	0xb4	-76
211	0xf0	-16
212	0xe8	-24
213	0x12	18
214	0x3a	58
215	0xc4	-60
216	0x16	22
217	0xfe	-2
218	0xf4	-12
219	0xe9	-23
220	0x0b	11
221	0xc0	-64
222	0x24	36
223	0xac	-84
224	0xc7	-57
225	0xee	-18
226	0x90	-112
227	0xb3	-77
228	0xc8	-56
229	0xfa	-6
230	0x29	41
231	0xef	-17
232	0xf2	-14
233	0xb6	-74
234	0xcc	-52
235	0xf4	-12
236	0x06	6
237	0xdf	-33
238	0x0e	14
239	0x0e	14
240	0xe6	-26
241	0x1c	28
242	0x24	36
243	0x01	1
244	0x1a	26
245	0xff	-1
246	0xfc	-4
247	0xec	-20
248	0x0a	10
249	0xf0	-16
250	0x25	37
251	0x12	18
252	0x01	1
253	0x11	17
254	0xf4	-12
255	0xff	-1

sequential_1/quant_dense_2/MatMul;sequential_1/quant_dense_2/LastValueQuant/FakeQuantWithMinMaxVars i1 [512, 512] scale=0.014596259 zero_point=0
0	0xfe	-0.029192518
1	0xef	-0.2481364
2	0xe2	-0.4378878
3	0xf8	-0.116770074
4	0x20	0.4670803
5	0x0f	0.2189439
6	0xf2	-0.20434763
7	0x0a	0.1459626
8	0x07	0.10217381
9	0x13	0.27732894
10	0x00	0.0
11	0xf1	-0.2189439
12	0x01	0.014596259
13	0xf5	-0.16055885
14	0x05	0.0729813
15	0x0f	0.2189439
16	0x12	0.26273265
17	0xf2	-0.20434763
18	0x19	0.3649065
19	0x14	0.2919252
20	0x01	0.014596259
21	0xe0	-0.4670803
22	0xf7	-0.13136633
23	0x09	0.13136633
24	0xfe	-0.029192518
25	0xf8	-0.116770074
26	0xed	-0.27732894
27	0xf2	-0.20434763
28	0xf6	-0.1459626
29	0xfc	-0.058385037
30	0x16	0.3211177
31	0x07	0.10217381
32	0xf3	-0.18975137
33	0xf5	-0.16055885
34	0xf2	-0.20434763
35	0x0c	0.1751551
36	0x06	0.08757755
37	0x1f	0.45248404
38	0xf7	-0.13136633
39	0xed	-0.27732894
40	0x1a	0.37950274
41	0x11	0.2481364
42	0xf8	-0.116770074
43	0xf3	-0.18975137
44	0x07	0.10217381
45	0xdf	-0.48167655
46	0xf3	-0.18975137
47	0x14	0.2919252
48	0x0b	0.16055885
49	0xd3	-0.6568317
50	0xff	-0.014596259
51	0xf2	-0.20434763
52	0x12	0.26273265
53	0xf5	-0.16055885
54	0xfe	-0.029192518
55	0x0c	0.1751551
56	0xee	-0.26273265
57	0xea	-0.3211177
58	0xfb	-0.0729813
59	0xfe	-0.029192518
60	0xf4	-0.1751551
61	0x08	0.116770074
62	0x00	0.0
63	0x01	0.014596259
64	0x0b	0.16055885
65	0xef	-0.2481364
66	0xf3	-0.18975137
67	0x0d	0.18975137
68	0xef	-0.2481364
69	0x02	0.029192518
70	0x04	0.058385037
71	0xdd	-0.5108691
72	0xec	-0.2919252
73	0x0a	0.1459626
74	0xe7	-0.3649065
75	0xeb	-0.30652145
76	0x03	0.043788776
77	0xda	-0.5546579
78	0x06	0.08757755
79	0x06	0.08757755
80	0x07	0.10217381
81	0xf1	-0.2189439
82	0x03	0.043788776
83	0x05	0.0729813
84	0x15	0.30652145
85	0x0a	0.1459626
86	0x0a	0.1459626
87	0x0c	0.1751551
88	0xe9	-0.33571395
89	0xfa	-0.08757755
90	0x08	0.116770074
91	0xf4	-0.1751551
92	0x0a	0.1459626
93	0x09	0.13136633
94	0xee	-0.26273265
95	0xf4	-0.1751551
96	0xf7	-0.13136633
97	0x13	0.27732894
98	0x14	0.2919252
99	0xff	-0.014596259
100	0x00	0.0
101	0xf5	-0.16055885
102	0xed	-0.27732894
103	0xe0	-0.4670803
104	0xf5	-0.16055885
105	0xf3	-0.18975137
106	0xdc	-0.5254653
107	0x1e	0.4378878
108	0xf0	-0.23354015
109	0xfb	-0.0729813
110	0xf3	-0.18975137
111	0xff	-0.014596259
112	0x0c	0.1751551
113	0x06	0.08757755
114	0xfb	-0.0729813
115	0xfe	-0.029192518
116	0x0b	0.16055885
117	0x1d	0.4232915
118	0x08	0.116770074
119	0xfe	-0.029192518
120	0xf4	-0.1751551
121	0x02	0.029192518
122	0x1f	0.45248404
123	0xfd	-0.043788776
124	0xfc	-0.058385037
125	0xf5	-0.16055885
126	0xe5	-0.394099
127	0x01	0.014596259
128	0xfb	-0.0729813
129	0xfc	-0.058385037
130	0x15	0.30652145
131	0xf3	-0.18975137
132	0x09	0.13136633
133	0x10	0.23354015
134	0x1c	0.40869525
135	0x12	0.26273265
136	0x00	0.0
137	0x0d	0.18975137
138	0x0c	0.1751551
139	0x15	0.30652145
140	0x00	0.0
141	0xfc	-0.058385037
142	0xf3	-0.18975137
143	0xff	-0.014596259
144	0x01	0.014596259
145	0x07	0.10217381
146	0x03	0.043788776
147	0xef	-0.2481364
148	0x0b	0.16055885
149	0xf3	-0.18975137
150	0xf0	-0.23354015
151	0x04	0.058385037
152	0xff	-0.014596259
153	0x09	0.13136633
154	0xf6	-0.1459626
155	0xfe	-0.029192518
156	0x11	0.2481364
157	0xf9	-0.10217381
158	0x1b	0.394099
159	0x07	0.10217381
160	0xf7	-0.13136633
161	0x01	0.014596259
162	0xfc	-0.058385037
163	0x02	0.029192518
164	0x02	0.029192518
165	0xfa	-0.08757755
166	0xeb	-0.30652145
167	0x04	0.058385037
168	0x11	0.2481364
169	0x07	0.10217381
170	0x13	0.27732894
171	0x0f	0.2189439
172	0x07	0.10217381
173	0x07	0.10217381
174	0x11	0.2481364
175	0x0e	0.20434763
176	0x02	0.029192518
177	0xf9	-0.10217381
178	0x06	0.08757755
179	0xf5	-0.16055885
180	0xfa	-0.08757755
181	0xf2	-0.20434763
182	0xfa	-0.08757755
183	0xed	-0.27732894
184	0x03	0.043788776
185	0x0b	0.16055885
186	0xf3	-0.18975137
187	0x07	0.10217381
188	0x06	0.08757755
189	0x05	0.0729813
190	0xfa	-0.08757755
191	0x0a	0.1459626
192	0x10	0.23354015
193	0xfd	-0.043788776
194	0xf7	-0.13136633
195	0x0a	0.1459626
196	0xec	-0.2919252
197	0xf8	-0.116770074
198	0xf2	-0.20434763
199	0xfe	-0.029192518
200	0xf8	-0.116770074
201	0x10	0.23354015
202	0xf2	-0.20434763
203	0x05	0.0729813
204	0xf3	-0.18975137
205	0x05	0.0729813
206	0x06	0.08757755
207	0xef	-0.2481364
208	0xf9	-0.10217381
209	0x05	0.0729813
210	0xf6	-0.1459626
211	0x10	0.23354015
212	0xf9	-0.10217381
213	0x08	0.116770074
214	0x0f	0.2189439
215	0x01	0.014596259
216	0x11	0.2481364
217	0xfb	-0.0729813
218	0x03	0.043788776
219	0x17	0.33571395
220	0x02	0.029192518
221	0x02	0.029192518
222	0x0b	0.16055885
223	0xf4	-0.1751551
224	0x0b	0.16055885
225	0x17	0.33571395
226	0x05	0.0729813
227	0x15	0.30652145
228	0x0c	0.1751551
229	0x01	0.014596259
230	0xeb	-0.30652145
231	0xfa	-0.08757755
232	0xf3	-0.18975137
233	0xfa	-0.08757755
234	0x00	0.0
235	0x03	0.043788776
236	0x13	0.27732894
237	0x01	0.014596259
238	0xf5	-0.16055885
239	0xf2	-0.20434763
240	0xf9	-0.10217381
241	0xf0	-0.23354015
242	0x16	0.3211177
243	0x04	0.058385037
244	0xe3	-0.4232915
245	0xff	-0.014596259
246	0x15	0.30652145
247	0xf8	-0.116770074
248	0xff	-0.014596259
249	0xdd	-0.5108691
250	0xf6	-0.1459626
251	0x0e	0.20434763
252	0x03	0.043788776
253	0x04	0.058385037
254	0x00	0.0
255	0x15	0.30652145

sequential_1/quant_dense_3/MatMul;sequential_1/quant_dense_3/LastValueQuant/FakeQuantWithMinMaxVars i1 [10, 512] scale=0.011995604 zero_point=0
0	0x02	0.023991209
1	0xe2	-0.35986814
2	0x09	0.10796044
3	0x24	0.43184176
4	0xf7	-0.10796044
5	0x03	0.03598681
6	0x0b	0.13195165
7	0xee	-0.21592088
8	0x00	0.0
9	0x22	0.40785053
10	0xed	-0.22791648
11	0xfb	-0.059978023
12	0x00	0.0
13	0x0a	0.11995605
14	0xfe	-0.023991209
15	0x10	0.19192967
16	0xe5	-0.32388133
17	0xf3	-0.15594286
18	0x02	0.023991209
19	0xe9	-0.2758989
20	0xfd	-0.03598681
21	0xdf	-0.39585495
22	0xfc	-0.047982417
23	0x00	0.0
24	0xdc	-0.43184176
25	0x05	0.059978023
26	0x01	0.011995604
27	0x0d	0.15594286
28	0x13	0.22791648
29	0xe6	-0.3118857
30	0x07	0.08396923
31	0xe9	-0.2758989
32	0xfc	-0.047982417
33	0x02	0.023991209
34	0x09	0.10796044
35	0x14	0.2399121
36	0x07	0.08396923
37	0xfc	-0.047982417
38	0x0a	0.11995605
39	0x03	0.03598681
40	0xfb	-0.059978023
41	0xf9	-0.08396923
42	0x00	0.0
43	0x02	0.023991209
44	0xfc	-0.047982417
45	0xfa	-0.07197362
46	0xfa	-0.07197362
47	0xe4	-0.3358769
48	0x04	0.047982417
49	0x06	0.07197362
50	0x01	0.011995604
51	0x03	0.03598681
52	0xfe	-0.023991209
53	0xfb	-0.059978023
54	0xe3	-0.34787253
55	0xf8	-0.095964834
56	0xf9	-0.08396923
57	0xe3	-0.34787253
58	0xf7	-0.10796044
59	0x42	0.7917099
60	0x03	0.03598681
61	0x0c	0.14394724
62	0xff	-0.011995604
63	0xf9	-0.08396923
64	0x00	0.0
65	0xe2	-0.35986814
66	0xfa	-0.07197362
67	0xfb	-0.059978023
68	0x0e	0.16793846
69	0xfc	-0.047982417
70	0xfb	-0.059978023
71	0xff	-0.011995604
72	0xe8	-0.2878945
73	0xf7	-0.10796044
74	0xfc	-0.047982417
75	0xfb	-0.059978023
76	0x02	0.023991209
77	0x00	0.0
78	0x12	0.21592088
79	0x03	0.03598681
80	0xff	-0.011995604
81	0x07	0.08396923
82	0x02	0.023991209
83	0x01	0.011995604
84	0xff	-0.011995604
85	0xfa	-0.07197362
86	0xff	-0.011995604
87	0xff	-0.011995604
88	0x0a	0.11995605
89	0x5b	1.0916
90	0xee	-0.21592088
91	0xfc	-0.047982417
92	0x04	0.047982417
93	0xfd	-0.03598681
94	0x13	0.22791648
95	0xd8	-0.4798242
96	0xf7	-0.10796044
97	0xf7	-0.10796044
98	0xff	-0.011995604
99	0x00	0.0
100	0xfc	-0.047982417
101	0x10	0.19192967
102	0xfb	-0.059978023
103	0x06	0.07197362
104	0x2f	0.5637934
105	0x10	0.19192967
106	0x09	0.10796044
107	0x02	0.023991209
108	0xfa	-0.07197362
109	0xfa	-0.07197362
110	0x02	0.023991209
111	0x07	0.08396923
112	0x06	0.07197362
113	0x0e	0.16793846
114	0xfb	-0.059978023
115	0x1f	0.37186372
116	0xde	-0.40785053
117	0x04	0.047982417
118	0xfb	-0.059978023
119	0xd0	-0.575789
120	0xfc	-0.047982417
121	0x02	0.023991209
122	0xfa	-0.07197362
123	0xf5	-0.13195165
124	0xe4	-0.3358769
125	0xda	-0.45583296
126	0x02	0.023991209
127	0x33	0.6117758
128	0x22	0.40785053
129	0xfc	-0.047982417
130	0x04	0.047982417
131	0x01	0.011995604
132	0xfe	-0.023991209
133	0x02	0.023991209
134	0xfe	-0.023991209
135	0xeb	-0.25190768
136	0xfd	-0.03598681
137	0xee	-0.21592088
138	0x04	0.047982417
139	0xef	-0.20392527
140	0x26	0.45583296
141	0xfe	-0.023991209
142	0xfd	-0.03598681
143	0x07	0.08396923
144	0x19	0.2998901
145	0x09	0.10796044
146	0xfe	-0.023991209
147	0x01	0.011995604
148	0xf1	-0.17993407
149	0xff	-0.011995604
150	0xc8	-0.6717538
151	0x03	0.03598681
152	0xff	-0.011995604
153	0x25	0.44383734
154	0xf7	-0.10796044
155	0xec	-0.2399121
156	0xfa	-0.07197362
157	0xfa	-0.07197362
158	0xec	-0.2399121
159	0xf8	-0.095964834
160	0x01	0.011995604
161	0xf5	-0.13195165
162	0x0a	0.11995605
163	0x0c	0.14394724
164	0x03	0.03598681
165	0xfa	-0.07197362
166	0xf9	-0.08396923
167	0xfe	-0.023991209
168	0xf4	-0.14394724
169	0xfa	-0.07197362
170	0xe0	-0.38385934
171	0x08	0.095964834
172	0xd6	-0.50381535
173	0xd5	-0.51581097
174	0xf7	-0.10796044
175	0xeb	-0.25190768
176	0x03	0.03598681
177	0x02	0.023991209
178	0xfd	-0.03598681
179	0x06	0.07197362
180	0x02	0.023991209
181	0xe5	-0.32388133
182	0x0c	0.14394724
183	0xf8	-0.095964834
184	0xe3	-0.34787253
185	0x02	0.023991209
186	0xfa	-0.07197362
187	0xfb	-0.059978023
188	0xfc	-0.047982417
189	0xfa	-0.07197362
190	0x04	0.047982417
191	0xec	-0.2399121
192	0x00	0.0
193	0xd5	-0.51581097
194	0x18	0.2878945
195	0x13	0.22791648
196	0xfa	-0.07197362
197	0xf4	-0.14394724
198	0x06	0.07197362
199	0x03	0.03598681
200	0xfa	-0.07197362
201	0xfe	-0.023991209
202	0xf7	-0.10796044
203	0x01	0.011995604
204	0x03	0.03598681
205	0x01	0.011995604
206	0xfe	-0.023991209
207	0xf6	-0.11995605
208	0x10	0.19192967
209	0x07	0.08396923
210	0x06	0.07197362
211	0xfb	-0.059978023
212	0xf7	-0.10796044
213	0x05	0.059978023
214	0x09	0.10796044
215	0x07	0.08396923
216	0x02	0.023991209
217	0x01	0.011995604
218	0xff	-0.011995604
219	0x0e	0.16793846
220	0x09	0.10796044
221	0xf9	-0.08396923
222	0x06	0.07197362
223	0xed	-0.22791648
224	0xff	-0.011995604
225	0x03	0.03598681
226	0xff	-0.011995604
227	0xfb	-0.059978023
228	0xf5	-0.13195165
229	0x09	0.10796044
230	0xe0	-0.38385934
231	0xfb	-0.059978023
232	0x0d	0.15594286
233	0x05	0.059978023
234	0xe8	-0.2878945
235	0x04	0.047982417
236	0x0d	0.15594286
237	0xf9	-0.08396923
238	0x06	0.07197362
239	0xf3	-0.15594286
240	0x0b	0.13195165
241	0xe6	-0.3118857
242	0x04	0.047982417
243	0xed	-0.22791648
244	0x10	0.19192967
245	0xf8	-0.095964834
246	0xf9	-0.08396923
247	0x02	0.023991209
248	0xff	-0.011995604
249	0x05	0.059978023
250	0x23	0.41984615
251	0x0c	0.14394724
252	0xf3	-0.15594286
253	0x0e	0.16793846
254	0xed	-0.22791648
255	0x2a	0.50381535
