mnist/badnets_single_pixel_all_to_all_quantized.tflite (tflite, 289560 bytes, 4 tensors)

sequential/quant_conv2d/Conv2D;sequential/quant_conv2d/LastValueQuant/FakeQuantWithMinMaxVarsPerChannel i1 [16, 5, 5, 1]
00000000: f5ce c90d 13f9 de96 b404 0f17 d881 d11f
00000010: 280a dfef 160c 0dee ebd9 2616 142a 050d
00000020: 4213 d9c6 2645 0a89 e435 0608 81e8 d914
00000030: 1702 f5f9 f9fc ee02 f9f5 fbf4 0106 eaf9
00000040: eff4 f0e5 e7d9 e0d3 d2cb 7ffe 2f2b c7b1
00000050: ff23 16ae c30a 21f1 81db 0825 d2c6 fb16
00000060: 02d4 eaff 2a27 4b59 0a7d 2533 531a 25cd
00000070: e0a7 bdcd 8198 a6d2 90e4 00ee cd01 2133
00000080: 2728 ef0c 1f11 0fa7 81ab bcbb eacf b6b6
00000090: 9e2f 2628 0867 0f15 4a64 d403 8199 2dfd
000000a0: 2782 9c33 476e 19ef d0f7 342e eec8 d70b
000000b0: f5f1 d9d1 f401 09fe cd00 f917 14dd 0809
000000c0: 2416 d314 070b e47f d3cb 86a6 faf0 07fd
000000d0: fb3d dd2b 4738 1eae b4dd f3f6 81a9 81b9
000000e0: e519 1e46 22f8 09ee 2f21 dcfa a926 1f06
000000f0: 81b9 e933 06c6 0e22 0a10 101e d1d6 e8ee
-11 -50 -55 13 19 -7 -34 -106
-76 4 15 23 -40 -127 -47 31
40 10 -33 -17 22 12 13 -18
-21 -39 38 22 20 42 5 13
66 19 -39 -58 38 69 10 -119
-28 53 6 8 -127 -24 -39 20
23 2 -11 -7 -7 -4 -18 2
-7 -11 -5 -12 1 6 -22 -7
-17 -12 -16 -27 -25 -39 -32 -45
-46 -53 127 -2 47 43 -57 -79
-1 35 22 -82 -61 10 33 -15
-127 -37 8 37 -46 -58 -5 22
2 -44 -22 -1 42 39 75 89
10 125 37 51 83 26 37 -51
-32 -89 -67 -51 -127 -104 -90 -46
-112 -28 0 -18 -51 1 33 51
39 40 -17 12 31 17 15 -89
-127 -85 -68 -69 -22 -49 -74 -74
-98 47 38 40 8 103 15 21
74 100 -44 3 -127 -103 45 -3
39 -126 -100 51 71 110 25 -17
-48 -9 52 46 -18 -56 -41 11
-11 -15 -39 -47 -12 1 9 -2
-51 0 -7 23 20 -35 8 9
36 22 -45 20 7 11 -28 127
-45 -53 -122 -90 -6 -16 7 -3
-5 61 -35 43 71 56 30 -82
-76 -35 -13 -10 -127 -87 -127 -71
-27 25 30 70 34 -8 9 -18
47 33 -36 -6 -87 38 31 6
-127 -71 -23 51 6 -58 14 34
10 16 16 30 -47 -42 -24 -18

sequential/quant_conv2d_1/Conv2D;sequential/quant_conv2d_1/LastValueQuant/FakeQuantWithMinMaxVarsPerChannel i1 [32, 5, 5, 16]
00000000: 05e7 0d16 d8f0 f5d7 e1e1 e4eb edf9 d8c4
00000010: e8dc 0fda ddf3 a4f3 1201 28eb 0ee1 afed
00000020: e1ee 0c16 ceff bb0c 13fd 1cef fdfd 000f
00000030: 05f0 f8fe dbf5 f0f9 f9f9 04e2 cc02 02f9
00000040: 0220 0608 16ea 00fd 24c4 f4fd 0808 0df8
00000050: 0fc0 fe21 02ee f1fa 1ae4 07e3 01f6 db16
00000060: e0e3 17d3 dee1 bfff 2cff 0ae4 fff5 f612
00000070: f306 0f11 b0e8 fdfc 0b07 1bf0 ee04 0d05
00000080: f90d f708 16e3 fef3 efe4 0910 f00b 090c
00000090: 0d0a f81a 25f9 06d6 0ddd f108 06f9 feef
000000a0: 0681 0cfc 0604 d309 01fb f113 11e5 d90b
000000b0: f201 fc05 c8d0 f106 0513 1ace 0100 040a
000000c0: e608 f011 fbc4 f4f7 06e8 1618 da03 06df
000000d0: e308 e508 22ff fceb fab6 fe15 e20c 05d3
000000e0: fbf9 0919 1e23 0fd1 1ad4 c209 17f7 d2d2
000000f0: f3be 0ada f8f8 0dff f21d 27e2 00eb d605
5 -25 13 22 -40 -16 -11 -41
-31 -31 -28 -21 -19 -7 -40 -60
-24 -36 15 -38 -35 -13 -92 -13
18 1 40 -21 14 -31 -81 -19
-31 -18 12 22 -50 -1 -69 12
19 -3 28 -17 -3 -3 0 15
5 -16 -8 -2 -37 -11 -16 -7
-7 -7 4 -30 -52 2 2 -7
2 32 6 8 22 -22 0 -3
36 -60 -12 -3 8 8 13 -8
15 -64 -2 33 2 -18 -15 -6
26 -28 7 -29 1 -10 -37 22
-32 -29 23 -45 -34 -31 -65 -1
44 -1 10 -28 -1 -11 -10 18
-13 6 15 17 -80 -24 -3 -4
11 7 27 -16 -18 4 13 5
-7 13 -9 8 22 -29 -2 -13
-17 -28 9 16 -16 11 9 12
13 10 -8 26 37 -7 6 -42
13 -35 -15 8 6 -7 -2 -17
6 -127 12 -4 6 4 -45 9
1 -5 -15 19 17 -27 -39 11
-14 1 -4 5 -56 -48 -15 6
5 19 26 -50 1 0 4 10
-26 8 -16 17 -5 -60 -12 -9
6 -24 22 24 -38 3 6 -33
-29 8 -27 8 34 -1 -4 -21
-6 -74 -2 21 -30 12 5 -45
-5 -7 9 25 30 35 15 -47
26 -44 -62 9 23 -9 -46 -46
-13 -66 10 -38 -8 -8 13 -1
-14 29 39 -30 0 -21 -42 5

sequential/quant_dense/MatMul;sequential/quant_dense/LastValueQuant/FakeQuantWithMinMaxVars i1 [512, 512] scale=0.015626438 zero_point=0
00000000: 10f1 f509 f00a f0ea 1907 2211 f804 f9f6
00000010: 0cf0 fbf6 f617 eb01 f717 f5fb 0900 fa13
00000020: 0302 f1f0 f001 e8e6 f6f8 f9f5 ec13 f515
00000030: 30ea 01f0 e533 0112 e81d f200 effe fffe
00000040: 0fff f204 fdfc 05ff 00f5 e1ed 04ec 0507
00000050: 0405 1cfc 09f4 1802 edff f60e 0908 f8fe
00000060: 0315 f907 0c04 0df6 12e6 ecf1 09e8 180d
00000070: 07ea 0f0d ffea 1401 ebf3 ec17 19fb fd15
00000080: f7f2 01fc eb10 10f6 efee 12f3 f90f f102
00000090: 0918 07fa 0df9 f0fb f700 0e00 0d02 eaf1
000000a0: 10f4 0403 f314 ffee 10f6 1af1 08fc 0016
000000b0: fff5 12f7 01f7 03fd f71f dced f906 ffea
000000c0: 1106 fd07 f802 0e08 e9e7 0dfe 0012 090e
000000d0: e2fb ea02 fc0e 010f d714 ec08 02f7 0800
000000e0: e618 060d 07f1 0a24 fef9 f211 dee5 01fc
000000f0: fee2 fb07 10fa 08f1 e204 1b01 07eb fa04
0.250023 -0.23439658 -0.17189083 0.14063793 -0.250023 0.15626438 -0.250023 -0.34378165
0.39066094 0.109385066 0.5312989 0.26564944 -0.1250115 0.06250575 -0.109385066 -0.15626438
0.18751726 -0.250023 -0.07813219 -0.15626438 -0.15626438 0.35940808 -0.3281552 0.015626438
-0.14063793 0.35940808 -0.17189083 -0.07813219 0.14063793 0.0 -0.09375863 0.29690233
0.046879314 0.031252876 -0.23439658 -0.250023 -0.250023 0.015626438 -0.3750345 -0.40628737
-0.15626438 -0.1250115 -0.109385066 -0.17189083 -0.31252876 0.29690233 -0.17189083 0.3281552
0.750069 -0.34378165 0.015626438 -0.250023 -0.42191383 0.7969483 0.015626438 0.28127587
-0.3750345 0.4531667 -0.21877013 0.0 -0.26564944 -0.031252876 -0.015626438 -0.031252876
0.23439658 -0.015626438 -0.21877013 0.06250575 -0.046879314 -0.06250575 0.07813219 -0.015626438
0.0 -0.17189083 -0.48441958 -0.29690233 0.06250575 -0.31252876 0.07813219 0.109385066
0.06250575 0.07813219 0.43754026 -0.06250575 0.14063793 -0.18751726 0.3750345 0.031252876
-0.29690233 -0.015626438 -0.15626438 0.21877013 0.14063793 0.1250115 -0.1250115 -0.031252876
0.046879314 0.3281552 -0.109385066 0.109385066 0.18751726 0.06250575 0.20314369 -0.15626438
0.28127587 -0.40628737 -0.31252876 -0.23439658 0.14063793 -0.3750345 0.3750345 0.20314369
0.109385066 -0.34378165 0.23439658 0.20314369 -0.015626438 -0.34378165 0.31252876 0.015626438
-0.3281552 -0.20314369 -0.31252876 0.35940808 0.39066094 -0.07813219 -0.046879314 0.3281552
-0.14063793 -0.21877013 0.015626438 -0.06250575 -0.3281552 0.250023 0.250023 -0.15626438
-0.26564944 -0.28127587 0.28127587 -0.20314369 -0.109385066 0.23439658 -0.23439658 0.031252876
0.14063793 0.3750345 0.109385066 -0.09375863 0.20314369 -0.109385066 -0.250023 -0.07813219
-0.14063793 0.0 0.21877013 0.0 0.20314369 0.031252876 -0.34378165 -0.23439658
0.250023 -0.18751726 0.06250575 0.046879314 -0.20314369 0.31252876 -0.015626438 -0.28127587
0.250023 -0.15626438 0.40628737 -0.23439658 0.1250115 -0.06250575 0.0 0.34378165
-0.015626438 -0.17189083 0.28127587 -0.14063793 0.015626438 -0.14063793 0.046879314 -0.046879314
-0.14063793 0.48441958 -0.56255174 -0.29690233 -0.109385066 0.09375863 -0.015626438 -0.34378165
0.26564944 0.09375863 -0.046879314 0.109385066 -0.1250115 0.031252876 0.21877013 0.1250115
-0.35940808 -0.39066094 0.20314369 -0.031252876 0.0 0.28127587 0.14063793 0.21877013
-0.46879315 -0.07813219 -0.34378165 0.031252876 -0.06250575 0.21877013 0.015626438 0.23439658
-0.64068395 0.31252876 -0.31252876 0.1250115 0.031252876 -0.14063793 0.1250115 0.0
-0.40628737 0.3750345 0.09375863 0.20314369 0.109385066 -0.23439658 0.15626438 0.56255174
-0.031252876 -0.109385066 -0.21877013 0.26564944 -0.5312989 -0.42191383 0.015626438 -0.06250575
-0.031252876 -0.46879315 -0.07813219 0.109385066 0.250023 -0.09375863 0.1250115 -0.23439658
-0.46879315 0.06250575 0.42191383 0.015626438 0.109385066 -0.3281552 -0.09375863 0.06250575

sequential/quant_dense_1/MatMul;sequential/quant_dense_1/LastValueQuant/FakeQuantWithMinMaxVars i1 [10, 512] scale=0.01080081 zero_point=0
00000000: f9cf 100e fd04 d7fb 0900 d902 d715 f701
00000010: 03e8 dbfe e1fd 030e 05f6 091b fdf8 1905
00000020: ebfd fb00 05d3 2afe fa15 fb0e 0703 e30a
00000030: 08c6 14d0 0cfb 0eba eee2 fcc8 fb00 fdf5
00000040: eae6 08f7 06ed 11f2 0701 0103 f0ff e204
00000050: ea07 00ee 18db bbf9 1413 b4f5 03db e70a
00000060: fbcf 02c5 fafa d2ee 06f4 15cd 0406 04fd
00000070: 18f0 0dd8 1f07 d7b0 0f18 f4fd 0117 eb1b
00000080: f001 fbe6 e0e6 0100 fb07 f2cd f20d 129a
00000090: e008 e5e6 e912 fa0e 031e e4ef 05db 17de
000000a0: 0cf4 d904 f1f5 1f0f 0804 d6dc 1202 101f
000000b0: fdfa 17de 0dfa ecd8 c205 fa1e 1014 e42a
000000c0: d1b5 f1e9 e201 2d02 fdd1 0dfb eef6 05f7
000000d0: fb0b efbe f10d 09e4 098c d217 f0fb d91c
000000e0: cc04 f4fa 13fb cc00 f0fa dedd c215 e8ee
000000f0: f910 08c0 e7e6 ffe1 f3f8 0eee 0601 e4f2
-0.07560567 -0.52923965 0.17281295 0.15121134 -0.03240243 0.04320324 -0.4428332 -0.054004047
0.097207285 0.0 -0.42123157 0.02160162 -0.4428332 0.226817 -0.097207285 0.01080081
0.03240243 -0.25921944 -0.39962995 -0.02160162 -0.3348251 -0.03240243 0.03240243 0.15121134
0.054004047 -0.108008094 0.097207285 0.29162186 -0.03240243 -0.08640648 0.27002025 0.054004047
-0.226817 -0.03240243 -0.054004047 0.0 0.054004047 -0.48603642 0.453634 -0.02160162
-0.06480486 0.226817 -0.054004047 0.15121134 0.07560567 0.03240243 -0.31322348 0.108008094
0.08640648 -0.62644696 0.21601619 -0.5184389 0.12960972 -0.054004047 0.15121134 -0.75605667
-0.19441457 -0.3240243 -0.04320324 -0.60484535 -0.054004047 0.0 -0.03240243 -0.1188089
-0.2376178 -0.28082106 0.08640648 -0.097207285 0.06480486 -0.20521538 0.18361376 -0.15121134
0.07560567 0.01080081 0.01080081 0.03240243 -0.17281295 -0.01080081 -0.3240243 0.04320324
-0.2376178 0.07560567 0.0 -0.19441457 0.25921944 -0.39962995 -0.7452559 -0.07560567
0.21601619 0.20521538 -0.8208615 -0.1188089 0.03240243 -0.39962995 -0.27002025 0.108008094
-0.054004047 -0.52923965 0.02160162 -0.63724774 -0.06480486 -0.06480486 -0.49683723 -0.19441457
0.06480486 -0.12960972 0.226817 -0.5508413 0.04320324 0.06480486 0.04320324 -0.03240243
0.25921944 -0.17281295 0.14041053 -0.43203238 0.3348251 0.07560567 -0.4428332 -0.86406475
0.16201214 0.25921944 -0.12960972 -0.03240243 0.01080081 0.24841861 -0.226817 0.29162186
-0.17281295 0.01080081 -0.054004047 -0.28082106 -0.3456259 -0.28082106 0.01080081 0.0
-0.054004047 0.07560567 -0.15121134 -0.5508413 -0.15121134 0.14041053 0.19441457 -1.1016825
-0.3456259 0.08640648 -0.29162186 -0.28082106 -0.24841861 0.19441457 -0.06480486 0.15121134
0.03240243 0.3240243 -0.30242267 -0.18361376 0.054004047 -0.39962995 0.24841861 -0.36722752
0.12960972 -0.12960972 -0.42123157 0.04320324 -0.16201214 -0.1188089 0.3348251 0.16201214
0.08640648 0.04320324 -0.453634 -0.38882914 0.19441457 0.02160162 0.17281295 0.3348251
-0.03240243 -0.06480486 0.24841861 -0.36722752 0.14041053 -0.06480486 -0.21601619 -0.43203238
-0.6696502 0.054004047 -0.06480486 0.3240243 0.17281295 0.21601619 -0.30242267 0.453634
-0.50763804 -0.81006074 -0.16201214 -0.24841861 -0.3240243 0.01080081 0.48603642 0.02160162
-0.03240243 -0.50763804 0.14041053 -0.054004047 -0.19441457 -0.108008094 0.054004047 -0.097207285
-0.054004047 0.1188089 -0.18361376 -0.71285343 -0.16201214 0.14041053 0.097207285 -0.30242267
0.097207285 -1.2528939 -0.49683723 0.24841861 -0.17281295 -0.054004047 -0.42123157 0.30242267
-0.5616421 0.04320324 -0.12960972 -0.06480486 0.20521538 -0.054004047 -0.5616421 0.0
-0.17281295 -0.06480486 -0.36722752 -0.37802833 -0.6696502 0.226817 -0.25921944 -0.19441457
-0.07560567 0.17281295 0.08640648 -0.6912518 -0.27002025 -0.28082106 -0.01080081 -0.3348251
-0.14041053 -0.08640648 0.15121134 -0.19441457 0.06480486 0.01080081 -0.30242267 -0.15121134
